assets/models/symptom_model.tflite (tflite, 206048 bytes, 8 tensors)

arith.constant f4 [12, 64]
0	0xbe48a4c0	-0.19594097
1	0x3d83bed4	0.06432882
2	0xbe8fa6a6	-0.2805683
3	0xbea2240d	-0.3166813
4	0x3dfc4454	0.1231772
5	0xbd5944de	-0.053044192
6	0x3d8af71b	0.06785413
7	0x3e35a9ef	0.17740606
8	0x3e13e39d	0.14442296
9	0x3e7d03c7	0.24708472
10	0x3d222b67	0.039592173
11	0xbe75dc4e	-0.24009821
12	0x3e0cdd2b	0.13756244
13	0xbd77b277	-0.06047293
14	0x3e5be3b3	0.21473579
15	0xbdeff57f	-0.117167465
16	0xbe8f76dd	-0.28020373
17	0xbd9cca95	-0.07655827
18	0x3dc7891f	0.09742951
19	0xbe5bd040	-0.2146616
20	0x3bbd136e	0.0057701385
21	0x3cd5a7f1	0.026081057
22	0x3e220f3f	0.15826128
23	0x3e448cf7	0.19194399
24	0x3da392bc	0.07986972
25	0x3e04988a	0.12948814
26	0x3e5077a9	0.20358147
27	0x3e71fdc9	0.23631968
28	0xbe9cde31	-0.3063827
29	0xbe7a498b	-0.24442117
30	0xbe935cd2	-0.28781754
31	0xbe94e5fe	-0.2908172
32	0x3e83f23e	0.25770754
33	0xbc3b46ff	-0.011430501
34	0x3e514975	0.20438178
35	0x3dd58c54	0.10427156
36	0xbcf8c010	-0.03036502
37	0x3d73ee1f	0.05955326
38	0x3db5c909	0.08876235
39	0xbea5bd51	-0.32371
40	0xbddaa623	-0.10676219
41	0x3d09321b	0.03349505
42	0x3d8e7d81	0.06957532
43	0x3dcc109f	0.09964108
44	0xbe4b924a	-0.19880024
45	0xbda4ced4	-0.08047262
46	0x3ca10748	0.019656792
47	0xbe9c45a2	-0.30521876
48	0x3e57ac47	0.21061812
49	0x3e23b0f1	0.15985467
50	0xbddfa38e	-0.109198675
51	0xbe90acca	-0.28256828
52	0xbe4b1439	-0.19831933
53	0xbeae17c0	-0.34002495
54	0xbe33d90f	-0.1756327
55	0x3e0f3dde	0.13988444
56	0xbe79c049	-0.24389757
57	0x3d4ab771	0.04949135
58	0x3e1efff7	0.1552733
59	0x3de9404d	0.113892175
60	0x3e6086f2	0.21926478
61	0x3e913b86	0.28365725
62	0x3e7a55b2	0.24446753
63	0x39e42b07	0.00043519607
64	0x3e7c8d10	0.24663186
65	0xbe8cb365	-0.27480617
66	0x3ddc3bc9	0.107535906
67	0xbea9a095	-0.33130327
68	0xbdfecfb8	-0.12441963
69	0x3e61b6d1	0.22042395
70	0x3d816f12	0.06320013
71	0x3e544a2f	0.20731424
72	0x3d4844ca	0.048893727
73	0x3c6ab9c1	0.014326514
74	0xbe97a0fa	-0.29615003
75	0x3e8d4806	0.27594012
76	0x3e850f1c	0.2598809
77	0x3d88ebdd	0.06685612
78	0x3e5aa79b	0.21352999
79	0xbe90ceba	-0.2828272
80	0xbe81a1d6	-0.25318784
81	0x3e846d57	0.2586467
82	0x3d7fdc5c	0.06246601
83	0xbe00d790	-0.1258223
84	0x3db28a58	0.08717793
85	0x3d9b00bb	0.07568499
86	0x3e2c148e	0.16804716
87	0x3d4a14b4	0.04933615
88	0x3e3c9d21	0.18419315
89	0x3e68afa4	0.22723252
90	0x3e6b8a2b	0.23001926
91	0xbea24bc8	-0.31698442
92	0xbe93c31e	-0.288598
93	0x3b83b3c1	0.004019231
94	0x3d2f4cae	0.042797737
95	0xbeadd079	-0.33948115
96	0x3e6116fc	0.21981424
97	0xbe2fb9f2	-0.17160776
98	0xbe52a157	-0.20569359
99	0xbe409128	-0.18805373
100	0xbc90f53c	-0.017695062
101	0xbd93076f	-0.07179152
102	0x3e8a5ae4	0.2702247
103	0xbd3668f9	-0.044533703
104	0xbe475c4d	-0.19468804
105	0x3e4fcc92	0.20292881
106	0xbe2babaa	-0.16764703
107	0x3e70727a	0.2348117
108	0xbe0064e3	-0.12538485
109	0x3e7e1f1b	0.24816553
110	0xbe4de8c5	-0.20108326
111	0xbe7dd6a7	-0.24788915
112	0xbdb71c65	-0.08940963
113	0xbe6aa685	-0.22915085
114	0x3dbd6c80	0.0924921
115	0xbc510cf5	-0.012759437
116	0xbe62a193	-0.22131948
117	0x3e7c0e22	0.24614766
118	0x3de4e32f	0.11176144
119	0xbe5fa630	-0.21840739
120	0xbe9743f4	-0.29544032
121	0x3e05c672	0.13063982
122	0x3cd98db0	0.02655682
123	0xbe0dc06d	-0.13842936
124	0x3dadc965	0.084856786
125	0xbe478071	-0.1948259
126	0xbe4f996a	-0.20273367
127	0x3e87241f	0.26394746
128	0x3dd8865b	0.10572501
129	0x3e3a5eb2	0.18200186
130	0xbe817e3c	-0.25291622
131	0xbc9d5320	-0.019204676
132	0x3e735c50	0.23765683
133	0x3e8b2830	0.27179098
134	0xbd5c228e	-0.05374389
135	0xbe5dbe38	-0.21654594
136	0x3ea442d6	0.32082242
137	0x3e5afd57	0.21385704
138	0xbe69ac3b	-0.22819607
139	0xbdf4b23f	-0.1194806
140	0xbd2a7afa	-0.041621186
141	0x3dc8bd77	0.098017626
142	0xbe86c699	-0.26323393
143	0xbe900960	-0.28132153
144	0x3e9f86a1	0.311574
145	0xbe878e52	-0.2647577
146	0x3e941fe6	0.28930587
147	0x3ea2afa3	0.31774625
148	0xbeb4d714	-0.35320342
149	0x3d975c01	0.07390595
150	0x3ad9ad59	0.0016607448
151	0xbe8bccfa	-0.27304822
152	0x3e491caf	0.19639848
153	0x3d6e8b81	0.05823851
154	0xbd91e037	-0.07122844
155	0xbdff555b	-0.12467452
156	0x3d03ade6	0.032148264
157	0xbe0e333e	-0.13886735
158	0x3e7b736d	0.2455575
159	0x3e5aff5c	0.21386474
160	0xbe8d195d	-0.27558413
161	0xbe12b089	-0.14325155
162	0xbec25e1b	-0.37962422
163	0xbead758c	-0.33878744
164	0xbd4057b0	-0.046958625
165	0xbe83bb3e	-0.25728792
166	0x3b95343c	0.004553346
167	0xbe24a957	-0.16080223
168	0xbe8517fa	-0.25994855
169	0x3ea0e85f	0.31427285
170	0x3decc115	0.11560265
171	0xbe22d7c0	-0.15902615
172	0xbe8d2c50	-0.2757287
173	0x3e11b436	0.14228901
174	0xbe50045a	-0.2031416
175	0x3d7a963f	0.061178442
176	0xbe3e8005	-0.18603523
177	0xbe83f478	-0.25772452
178	0x3d409aff	0.047022816
179	0xbda59291	-0.08084596
180	0xbe5c4c3c	-0.21513456
181	0xbe14732a	-0.14497057
182	0x3da0d716	0.078535244
183	0xbe06cdcd	-0.13164444
184	0x3e535674	0.20638448
185	0xbe951c41	-0.2912312
186	0x3e434619	0.19069709
187	0xbcf621c4	-0.030045398
188	0x3d846517	0.06464594
189	0xbe0b1b57	-0.13584648
190	0x3dfa4bbf	0.12221479
191	0x3ea7599a	0.32685548
192	0xbe1ffbc8	-0.1562339
193	0xbda3c3ad	-0.079963066
194	0xbe48e345	-0.19617946
195	0xbd168449	-0.03674725
196	0xbdc263b3	-0.09491672
197	0x3e8cbc25	0.27487293
198	0x3d8188c7	0.06324916
199	0x3ea62800	0.32452393
200	0xbd93ced9	-0.072171874
201	0xbe3ddcac	-0.18541211
202	0xbe35e42d	-0.17762823
203	0xbdf92671	-0.12165535
204	0x3e19f47c	0.1503467
205	0xbeb0ddee	-0.3454432
206	0x3e348f96	0.17632899
207	0xbdf6a9c1	-0.12044097
208	0xbe024bd0	-0.12724233
209	0xbe6903e3	-0.22755389
210	0xbc803e5d	-0.015654737
211	0x3cb35d35	0.02189503
212	0xbc82ba89	-0.015958088
213	0xbb8b8fe8	-0.0042590983
214	0xbde66cfc	-0.11251256
215	0x3df865ce	0.12128793
216	0xbe4445b4	-0.19167215
217	0x3e217fc2	0.15771392
218	0xbe89b19e	-0.26893324
219	0xbe8467bf	-0.25860402
220	0xbd9e3af6	-0.0772609
221	0x3e40358b	0.18770425
222	0x3d69e066	0.05709877
223	0x3d0f1920	0.03493607
224	0xbe201d88	-0.15636265
225	0xbe4cc362	-0.19996408
226	0x3e3acdb5	0.18242534
227	0x3ae92e09	0.0017790209
228	0xbd6ea29e	-0.058260553
229	0xbe56267c	-0.20913118
230	0xbe1c6365	-0.15272291
231	0xbd4fe99a	-0.05075989
232	0x3d2714bd	0.040791262
233	0x3e4cd38d	0.20002575
234	0xbe58ec0e	-0.21183798
235	0x3e466265	0.19373472
236	0x3e369bc5	0.17832859
237	0xbe8b0d4e	-0.27158588
238	0x3e634e8f	0.22197936
239	0xbe8874f3	-0.26651725
240	0x3e8cdcd3	0.27512226
241	0xbdeb12d4	-0.114782006
242	0x3e145816	0.14486727
243	0x3d8de51f	0.06928467
244	0xbdbb2b9c	-0.09139177
245	0x3e00c505	0.12575157
246	0x3e14aead	0.14519759
247	0x3e2b0c2f	0.16703866
248	0xbe4454f1	-0.19173028
249	0xbdec0104	-0.11523631
250	0x3d51f1dd	0.05125605
251	0x3e937b59	0.28805044
252	0xbe3e9d06	-0.18614587
253	0xbd66990e	-0.056298308
254	0xbc5de2cf	-0.013542845
255	0x3d271dc0	0.040799856

arith.constant1 f4 [64, 128]
0	0xbe22731c	-0.15864223
1	0x3e233796	0.15939173
2	0xbd7e1908	-0.06203559
3	0x3c8e4743	0.017367965
4	0x3e118e2d	0.14214392
5	0x3dfc0a35	0.12306634
6	0xbe16ecbb	-0.14738743
7	0x3e2f2b88	0.1710645
8	0x3e37141f	0.1787877
9	0xbd2b86d8	-0.041876644
10	0xbe2356e2	-0.15951112
11	0x3d57ec62	0.052715667
12	0x3c4ea08d	0.0126115205
13	0xbe271e48	-0.16320145
14	0xbdb8a61f	-0.0901606
15	0xbdc87931	-0.097887404
16	0xbdf01200	-0.11722183
17	0xbcad62d6	-0.021165293
18	0xbc15f2ac	-0.009152096
19	0xbe02945c	-0.12751907
20	0xbdd77732	-0.105207816
21	0x3d629e17	0.055326547
22	0x3df80fbf	0.12112378
23	0xbd1cd3b8	-0.03828785
24	0x3d6cc2e9	0.05780307
25	0xbdb6f218	-0.089328945
26	0xbd428234	-0.047487453
27	0xbd58a02a	-0.05288712
28	0x3db7a1b1	0.08966387
29	0xbd8fd56b	-0.07023128
30	0x3d0d09a2	0.034433015
31	0xbc1ccd38	-0.009570412
32	0xbd6b3d30	-0.0574314
33	0x3d103cea	0.035214342
34	0xbdbd8407	-0.09253698
35	0x3d1d5adf	0.03841674
36	0x3db39cb2	0.08770122
37	0xbd7a8540	-0.061162233
38	0x3e41faa9	0.18943276
39	0xbe0b01f2	-0.13574961
40	0x3e1bbe99	0.15209426
41	0xbd872efc	-0.066007584
42	0xbe0a379c	-0.13497776
43	0x3daf1b2b	0.08550104
44	0x3dfb2559	0.12262983
45	0x3e1c1284	0.15241438
46	0xbe047ba9	-0.12937798
47	0xbd57623d	-0.05258392
48	0x3db6e6b3	0.08930721
49	0x3e491ae8	0.1963917
50	0xbdd301a2	-0.10303046
51	0xbe399ab3	-0.1812542
52	0xbddca0ca	-0.107728556
53	0xbd9e174e	-0.07719289
54	0xbd0597c4	-0.032615438
55	0xbe394998	-0.1809448
56	0x3e12869a	0.14309159
57	0x3e07d508	0.13264859
58	0xbd9103de	-0.07080816
59	0x3da299dd	0.07939503
60	0xbdbdcbf1	-0.09267414
61	0x3d5334db	0.05156408
62	0x3e337da0	0.17528391
63	0xbd768795	-0.060187895
64	0x3d92649d	0.07148097
65	0x3e017ff7	0.12646471
66	0xbcfc89cd	-0.030827427
67	0x3e046730	0.12929988
68	0xbdb064f7	-0.086130075
69	0x3d2f9626	0.042867802
70	0x3e2788a4	0.16360718
71	0x3da9dce7	0.08294087
72	0xbdef30f4	-0.11679259
73	0x3e1f9d14	0.15587264
74	0x3c3b3270	0.011425599
75	0x3e1997e7	0.14999352
76	0xbdd68047	-0.10473686
77	0x3bbe9ed5	0.005817274
78	0x3d9de778	0.07710165
79	0x3df14631	0.11780966
80	0x3e281b19	0.16416587
81	0xbdae01d1	-0.0849644
82	0x3e5c33b8	0.21504104
83	0x3d939b33	0.07207336
84	0x3ddd67e5	0.10810832
85	0x3dc65d41	0.096857555
86	0x3e174e93	0.14776067
87	0x3c370a6a	0.0111719165
88	0x3b1f7d28	0.0024336074
89	0xbad6f86e	-0.0016400942
90	0x3da62281	0.0811205
91	0xbd4a1cac	-0.04934375
92	0x3d5d3a27	0.054010537
93	0x3d814dbb	0.06313654
94	0x3e2cce5c	0.16875595
95	0x3d279da2	0.040921815
96	0xbd92baf7	-0.07164567
97	0xbdead75a	-0.11466856
98	0xbc821775	-0.015880326
99	0x3da67af6	0.08128922
100	0x3dfdd0ad	0.12393317
101	0x3e0fd6a9	0.1404673
102	0xbc193460	-0.009350866
103	0xbdd6518d	-0.10464773
104	0x3df77436	0.12082712
105	0xbcbc613d	-0.022995586
106	0x3dcbcaf9	0.09950823
107	0xbb6c14e0	-0.0036023185
108	0x3e1c34cf	0.1525452
109	0xbd9dce26	-0.07705335
110	0x3df6561b	0.12028142
111	0x3e33ec74	0.17570668
112	0xbd3c2952	-0.045937844
113	0xbd9d1a3a	-0.07671018
114	0x3dc853bb	0.09781595
115	0x3e254478	0.161394
116	0xbdefac7f	-0.11702823
117	0x3e5c48ea	0.2151219
118	0x3e22f040	0.1591196
119	0xbe0b67ac	-0.13613766
120	0x3d97954d	0.07401524
121	0x3a88bef0	0.001043288
122	0xbe014575	-0.12624152
123	0x3e4dcaa5	0.20096834
124	0x3e19fd7b	0.15038101
125	0x3da8f372	0.082495585
126	0x3dbb4bde	0.0914533
127	0xbcd672d7	-0.026177807
128	0x3e2f6765	0.17129286
129	0x3d758612	0.059942313
130	0x3dbd0294	0.09229007
131	0xbd7fcdf7	-0.062452283
132	0xbe134d02	-0.14384845
133	0xbde22878	-0.11042875
134	0x3dd2ab0d	0.102865316
135	0x3e0ee050	0.13952756
136	0x3deabd2a	0.114618614
137	0x3de79d5d	0.113093115
138	0x3c1801d3	0.009277779
139	0x3e2b7541	0.16743948
140	0x3da10bba	0.07863565
141	0x3e16af0a	0.1471521
142	0x3d8ff679	0.07029433
143	0x3dba1c6f	0.090874545
144	0x3d4cbf66	0.04998722
145	0x3e39ebe0	0.18156385
146	0xbd81b1b8	-0.06332725
147	0xbd89898a	-0.067156866
148	0xbdd10a8d	-0.102070905
149	0xbe02e98f	-0.12784408
150	0x3daaac18	0.083336055
151	0xbe3a94e7	-0.18220864
152	0xbd0a1a79	-0.033716653
153	0x3e546df9	0.20745076
154	0x3e0254e9	0.12727703
155	0xbd901482	-0.070351616
156	0xbce70fdc	-0.028205805
157	0x3d70a8b6	0.058754645
158	0x3bad4bd6	0.0052885814
159	0xbdee1d7d	-0.11626718
160	0xbdfa9852	-0.12236084
161	0x3e40b74d	0.18819924
162	0xbe150ec0	-0.14556408
163	0xbd649df6	-0.055814706
164	0x3d7799bb	0.060449343
165	0xbd111324	-0.035418645
166	0xbe210ed6	-0.15728316
167	0xbd7a3304	-0.06108381
168	0x3e1c87b6	0.15286145
169	0xbcafff5c	-0.02148407
170	0xbca3d9d4	-0.02000133
171	0xbcbb1f0f	-0.022841958
172	0xbe058b0c	-0.13041323
173	0xbe3efc9d	-0.18651052
174	0xbda4aaf9	-0.08040423
175	0x3bfd3b18	0.007727992
176	0xbd0e3dba	-0.034726836
177	0xbe52f60e	-0.20601675
178	0xbe361495	-0.17781289
179	0xbe012dde	-0.12615153
180	0x3e400bf7	0.18754564
181	0x3a889a15	0.0010421897
182	0xbe165337	-0.14680181
183	0x3e1b9d3d	0.151967
184	0xbe0906cb	-0.13381498
185	0xbdf0c102	-0.11755563
186	0x3e29b7ca	0.16574016
187	0xbd28dc2f	-0.04122561
188	0x3d93369f	0.071881525
189	0xbc08f811	-0.008359925
190	0x3e05c124	0.13061959
191	0x3d29436c	0.041324064
192	0x3dd51897	0.10405081
193	0xbe348e43	-0.17632394
194	0x3d80b5f0	0.06284702
195	0xbddf68f9	-0.10908694
196	0xbdf3aa17	-0.118976764
197	0xbc084182	-0.0083163995
198	0x3dbffe06	0.09374623
199	0x3ce14611	0.02749923
200	0x3e059a34	0.13047105
201	0x3e11f2d4	0.14252788
202	0x3e42bbc3	0.19016938
203	0x3d5719fd	0.05251502
204	0xbd2d82f5	-0.04236122
205	0x3d655ce9	0.05599681
206	0xbdccec05	-0.10005955
207	0x3ce2c0a9	0.027679758
208	0x3e0c2376	0.13685402
209	0xbddd5cb2	-0.10808696
210	0xbe3be135	-0.18347628
211	0x3c4dfd3d	0.012572584
212	0x3d36f645	0.044668455
213	0x3cd2d0ce	0.025734331
214	0xbd035d20	-0.032071233
215	0xbda3118d	-0.07962332
216	0xbd8b9be6	-0.06816845
217	0x3e782efe	0.24236676
218	0xbdb293e8	-0.08719617
219	0xbe0ad27d	-0.13556857
220	0xbde64051	-0.11242736
221	0xbdacd2b8	-0.08438629
222	0x3ba17163	0.004926847
223	0x3e26cd37	0.16289221
224	0xbc91ad4e	-0.017782833
225	0x3e2e239d	0.17005773
226	0x3e1b8f67	0.15191422
227	0x3e5074ea	0.20357099
228	0xbe62a5ce	-0.22133562
229	0xbd5988a1	-0.053108815
230	0x3d9df0f5	0.077119745
231	0x3da6fd01	0.081537254
232	0x3d3a4f6e	0.045485906
233	0x3e272f85	0.16326721
234	0xbdbbdeb2	-0.09173335
235	0x3d2db403	0.042408
236	0x3e02b7da	0.12765446
237	0x3e23ccda	0.15996113
238	0xbdfe8d08	-0.12429243
239	0xbe4f0d7b	-0.20219986
240	0xbde67198	-0.11252135
241	0x3d732af1	0.059367124
242	0xbc9d8e00	-0.01923275
243	0xbe2df3f2	-0.16987589
244	0xbdfa03a8	-0.122077286
245	0x3e51277b	0.20425217
246	0xbe18c32d	-0.14918204
247	0x3e15b982	0.14621547
248	0x3e3d1a1c	0.18466991
249	0x3ce9b181	0.028527023
250	0x3e302147	0.17200194
251	0xbd92459b	-0.071421824
252	0xbd964a63	-0.07338407
253	0xbe6b3e78	-0.22973049
254	0xbd8b5693	-0.06803622
255	0x3e5ac5f8	0.21364582

arith.constant2 f4 [128, 256]
0	0x3dbc0fd2	0.09182705
1	0xbd8c6513	-0.06855216
2	0x3dfbe408	0.12299353
3	0xbd0a8361	-0.0338167
4	0x3ce45955	0.027874628
5	0x3b67ffa2	0.0035400172
6	0xbcfc7ea0	-0.030822098
7	0x3d64f35f	0.05589616
8	0x3c98f2db	0.01867049
9	0xbdc6c6ab	-0.09705862
10	0x3d9d0506	0.07666974
11	0x3e120090	0.14258027
12	0x3d6baf97	0.057540502
13	0xbda0467e	-0.07825945
14	0xbda67dca	-0.08129461
15	0xbd7ce88b	-0.061745208
16	0x3e124ece	0.14287874
17	0xbe066058	-0.1312269
18	0x3de4e9c8	0.11177403
19	0xbd8069a3	-0.062701486
20	0xbc07d924	-0.008291516
21	0xbe0449c9	-0.12918772
22	0x3d3a7374	0.04552026
23	0xbd41c466	-0.04730644
24	0x3e1c4bcb	0.15263288
25	0x3c21f8ea	0.009886006
26	0xbe099cfb	-0.1343879
27	0xbd65fba4	-0.056148186
28	0x3d289aed	0.041163374
29	0xbc4eaaad	-0.012613934
30	0x3ddf9135	0.10916368
31	0xbd56adce	-0.052411847
32	0xbd0cecee	-0.03440564
33	0x3d1b6d25	0.037945885
34	0xbd0b98b5	-0.03408118
35	0x3d7902c5	0.060793657
36	0x3dd669f9	0.104694314
37	0xb9c7ea0c	-0.00038130616
38	0xbd0f6a8d	-0.035013724
39	0xbdae3fba	-0.085082486
40	0x3db3e45c	0.087837905
41	0x3dd1507c	0.10220429
42	0x3d3a10ac	0.045426056
43	0x3da665f4	0.08124915
44	0x3db6b01c	0.08920309
45	0x3dbef0bb	0.093232594
46	0x3c161d25	0.009162222
47	0xbd5b31e6	-0.053514384
48	0xbc912470	-0.01771757
49	0xbe31b419	-0.17353858
50	0xbc1404dd	-0.009034363
51	0xbd7e72a7	-0.06212106
52	0xbda4ee2c	-0.0805324
53	0xbd32834d	-0.04358225
54	0xbd8e6db6	-0.069545195
55	0x3d64d21e	0.055864446
56	0xbd86013d	-0.06543205
57	0xbd1d815c	-0.038453445
58	0xbcd9c0ff	-0.026581286
59	0xbda928be	-0.08259724
60	0x3dc11563	0.09427907
61	0x3c51e7f2	0.012811648
62	0x3d1668ca	0.03672103
63	0xbd6148e4	-0.055001155
64	0xbe1cd7ed	-0.15316744
65	0xbe1009da	-0.14066258
66	0x3dbb8bc5	0.09157518
67	0x3e2df17a	0.16986647
68	0x3dec2cef	0.11532008
69	0x3e2aa088	0.166628
70	0x3e13d3ef	0.14436315
71	0xbc3586c0	-0.01107949
72	0xbd337d35	-0.04382058
73	0xbdda3166	-0.10653953
74	0xbdab476d	-0.08363233
75	0xbde1a2be	-0.11017369
76	0xbddaa731	-0.106764205
77	0x3e06c34f	0.13160442
78	0xbd9e248e	-0.07721816
79	0x3dffb71b	0.124860965
80	0xbe37b9d5	-0.17941983
81	0xbd6f93cc	-0.05849056
82	0x3dc664a3	0.09687164
83	0x3db4e0d4	0.08831945
84	0x3e0109d9	0.12601413
85	0x3db1718b	0.08664235
86	0xbc97961d	-0.018504197
87	0xbda791a1	-0.081820734
88	0x3dfc73d9	0.12326784
89	0xbe12624b	-0.14295308
90	0x3dad2a16	0.08455293
91	0x3cde3916	0.02712683
92	0x3da94288	0.08264643
93	0x3e4cf21f	0.20014237
94	0x3d958f40	0.073027134
95	0xbdd4a8e1	-0.103837736
96	0xbc203352	-0.009777861
97	0x3da86276	0.08221905
98	0x3d08b99d	0.03338014
99	0xbd7420c9	-0.05960158
100	0xbd92e96a	-0.071734264
101	0xbdd9a51b	-0.106271945
102	0x3d34544c	0.044025704
103	0xbd06a78c	-0.03287463
104	0xbcdbbfd5	-0.026824871
105	0xbe14df65	-0.14538343
106	0x3d815f03	0.0631695
107	0xbd976635	-0.07392541
108	0xbcf1fc0c	-0.02953913
109	0x3d4269da	0.04746423
110	0xbdb3c941	-0.087786205
111	0x3d39c2ce	0.045351796
112	0x3e08f0e9	0.1337315
113	0xbcd042fe	-0.02542257
114	0x3dbe6073	0.0929574
115	0xbdcd51f4	-0.10025397
116	0x3c112642	0.008859219
117	0x3d28abd6	0.0411795
118	0x3c45eeee	0.012080891
119	0x3dbb673b	0.09150549
120	0x3d263273	0.040575456
121	0xbc1989a3	-0.009371194
122	0x3dfc44d0	0.123178124
123	0x3d90c10a	0.07068069
124	0x3e147e42	0.14501289
125	0xbd3304ba	-0.04370568
126	0x3bb7ad53	0.0056053787
127	0x3dcf01cb	0.10107764
128	0xbe19325e	-0.1496062
129	0x3dfb117d	0.12259195
130	0x3d7b5322	0.06135858
131	0xbdf874f3	-0.12131681
132	0xbddb3ed4	-0.10705343
133	0x3ce40c35	0.027837852
134	0xbcec7f66	-0.028869342
135	0x3d83694e	0.0641657
136	0x3d2d1062	0.042251952
137	0xbde0ae41	-0.10970736
138	0x3d061778	0.032737225
139	0x3e02cedd	0.12774225
140	0x3e0c8322	0.13721898
141	0xbdd9e743	-0.10639813
142	0x3e07e93c	0.13272566
143	0x3de2a027	0.11065703
144	0x3c56c53e	0.01310855
145	0x3dcb8742	0.09937908
146	0x3da8a932	0.082353964
147	0x3cdacc16	0.026708644
148	0xbcd83e41	-0.026396872
149	0x3e07a55a	0.1324667
150	0x3ce4be61	0.027922811
151	0xbdf37465	-0.11887435
152	0xbc34c26b	-0.011032681
153	0x3c9d5f77	0.01921056
154	0x3c9aebbf	0.01891124
155	0x3e2c9e2b	0.16857211
156	0x3e10c9ad	0.14139433
157	0xbd9f1ed5	-0.077695526
158	0xbd116025	-0.03549208
159	0x3c8f0d94	0.01746253
160	0xbc04eae0	-0.008112639
161	0xbda853c5	-0.08219103
162	0x3d5890aa	0.052872337
163	0x3d509542	0.050923593
164	0xbd7f4b47	-0.06232765
165	0x3c8d16d6	0.017222803
166	0x3e394ecc	0.18096465
167	0xbd648b23	-0.055796754
168	0xbb38ed12	-0.0028217477
169	0x3dfaafce	0.12240563
170	0xbda092db	-0.078405105
171	0x3dcec451	0.10096038
172	0xbdb6e9fa	-0.08931346
173	0x3cd4ed7f	0.025992153
174	0x3e1b8a3b	0.1518945
175	0xbdc32246	-0.095280215
176	0x3dc831a9	0.09775097
177	0xbdbf8b7e	-0.09352778
178	0xbd34439a	-0.044009782
179	0x3cbff730	0.023433298
180	0x3db18c39	0.086693235
181	0x3d37fd1f	0.04491913
182	0xbd292c46	-0.041301988
183	0x3d954a1e	0.07289527
184	0x3dbb02b1	0.09131373
185	0xbd6db188	-0.058030635
186	0x3ba555a4	0.0050456095
187	0x3d6d1ad4	0.057886913
188	0x3d902c6a	0.07039721
189	0xbe0f61d6	-0.14002165
190	0x3bd41a05	0.0064728283
191	0x3e13c99f	0.14432381
192	0xbdbf6a25	-0.09346417
193	0xbdce0bd7	-0.10060852
194	0x3e27e665	0.16396482
195	0x3c9d7baf	0.019224016
196	0xbc6cdf25	-0.014457499
197	0x3dab6522	0.08368899
198	0xbd77a1f9	-0.060457204
199	0x3da6e334	0.08148804
200	0xbd02504b	-0.031814855
201	0x3dd9d0d1	0.10635532
202	0xbd82482e	-0.063614234
203	0x3c5e15e2	0.013555022
204	0x3cd13f7b	0.025542965
205	0x3daf9bd7	0.08574646
206	0x3e061065	0.13092192
207	0xbb5d050a	-0.0033724927
208	0xbd922f61	-0.07137943
209	0xbb0e1bff	-0.0021684167
210	0x3a4a9ae5	0.00077287696
211	0xbdf16326	-0.11786489
212	0xbd8a3f43	-0.067503475
213	0x3d08c0db	0.033387046
214	0x3dc20565	0.09473685
215	0x3de5e3c6	0.11225085
216	0xbd087dda	-0.033323146
217	0xbd8e5a48	-0.069508135
218	0xbddfa07d	-0.109192826
219	0xbd80fa41	-0.06297732
220	0x3d600dd2	0.05470068
221	0x3c2de927	0.01061467
222	0xbdf5a044	-0.11993459
223	0xbd32426c	-0.043520376
224	0x3c217d3b	0.009856517
225	0x3d414995	0.047189314
226	0x3dd740dd	0.105104186
227	0x3ccb3cfb	0.024809351
228	0xbd0d9597	-0.034566488
229	0x3db85e22	0.090023294
230	0xbd19a085	-0.0375066
231	0xbcbf7af5	-0.02337406
232	0x3d93d784	0.07218841
233	0xbdd624ff	-0.10456275
234	0x3e0bd294	0.13654548
235	0x3e239822	0.15976003
236	0xbdc95fec	-0.09832749
237	0x3e0fe16c	0.14050835
238	0x3e12189b	0.14267199
239	0x3daa5156	0.08316295
240	0x3d200411	0.039066378
241	0x3c0a11dc	0.00842711
242	0x3baca7e5	0.005269038
243	0x3d653d50	0.055966675
244	0x3d565c42	0.052334078
245	0xbd6195e3	-0.055074584
246	0xbd487da0	-0.04894793
247	0xbdb10aa7	-0.0864461
248	0xbe1665a6	-0.14687213
249	0x3d489b14	0.04897602
250	0xbc96a686	-0.018389951
251	0x3c004d3a	0.007830912
252	0x3de94b6d	0.113913395
253	0x3e12478e	0.14285108
254	0xbd5d75fe	-0.054067604
255	0x3d768d04	0.060193077

arith.constant3 f4 [12]
0	0xbcc7913c	-0.024361245
1	0x3bfed9e8	0.0077774413
2	0x3b9b999b	0.004748536
3	0x3c1c9580	0.009557128
4	0x3d213f0e	0.039366774
5	0xbd1350fb	-0.0359659
6	0x3b32ee10	0.002730254
7	0xbca9a58e	-0.020708825
8	0xbc37f050	-0.011226729
9	0xbc8181be	-0.015808936
10	0x3c0cec55	0.008601268
11	0x3ce7694b	0.02824845

arith.constant4 f4 [64]
0	0x3d0615f3	0.032735776
1	0x3d3a4ff3	0.0454864
2	0x3d5cfeb0	0.053953826
3	0x3c0790fb	0.008274312
4	0x3cf2ec48	0.029653683
5	0x3ca3609a	0.019943524
6	0x3cd2c3ed	0.02572819
7	0x3c4bacee	0.012431366
8	0x3d64e98d	0.055886794
9	0x3c819762	0.015819255
10	0xbce8aa36	-0.028401475
11	0x3cc1e042	0.023666505
12	0xbac0ba4a	-0.0014703956
13	0x3cd6471f	0.02615696
14	0x3d3d0f02	0.04615689
15	0x3c620f65	0.013797616
16	0x3d0d923a	0.03456328
17	0x3d1e1f89	0.038604293
18	0xbbc35b19	-0.0059617874
19	0x3d25e9c1	0.04050613
20	0x3d199d80	0.03750372
21	0x3baf34a9	0.0053468538
22	0x3c833fac	0.016021572
23	0xbccce6be	-0.02501237
24	0xbcb88583	-0.0225246
25	0x3cf450d2	0.029823694
26	0xbc94422f	-0.018097965
27	0x3d1ba9dc	0.038003787
28	0x3c97a650	0.018511921
29	0x3c8864a3	0.01664955
30	0x3b48602e	0.0030574906
31	0x3c9dcdd2	0.019263182
32	0x3cb817d5	0.022472301
33	0xbcacc8b5	-0.021091798
34	0x3c86c62c	0.016451918
35	0x3d07bb40	0.03313756
36	0x3c83fc72	0.016111586
37	0x3b1c9173	0.0023890405
38	0x3cc18d32	0.023626897
39	0x3d3cc46a	0.046085753
40	0x3ceffcdd	0.02929538
41	0x3d46f1df	0.04857051
42	0x3cdfa86b	0.027301988
43	0x3c761ac7	0.015021033
44	0x3cb9abaa	0.022664864
45	0x3d27b516	0.04094418
46	0x3d7a3b1a	0.06109152
47	0x3c8d6d8b	0.017264148
48	0x3cffa508	0.031206623
49	0x3cb80c4c	0.022466801
50	0x3c9564ba	0.018236507
51	0x3cf2c955	0.029637018
52	0x3d331644	0.043722406
53	0x3d13481f	0.035957452
54	0x3d39ed21	0.04539216
55	0x3cbae946	0.022816312
56	0x3c3fa584	0.011697177
57	0x3c51a97c	0.012796756
58	0x3cb361fe	0.021897312
59	0x3d2463c4	0.040134206
60	0xbc4aa9e6	-0.0123696085
61	0x3cde07ee	0.02710339
62	0x3cd3a52f	0.025835602
63	0x3caa96f4	0.020823933

sequential_1/dense_1_2/BiasAdd/ReadVariableOp f4 [128]
0	0x3ccbe3c6	0.024888884
1	0x3cbd64c5	0.02311934
2	0x3c231b73	0.009955275
3	0x3cf2e7ab	0.029651484
4	0x3ba91deb	0.005161037
5	0x3cdc008e	0.026855733
6	0x3c16832f	0.00918655
7	0x3c1a0a5a	0.009401882
8	0x3cfa797c	0.030575506
9	0x3cd86c1e	0.026418742
10	0x3c507069	0.012722113
11	0xbcb227db	-0.02174752
12	0x3cc5fb42	0.02416766
13	0x3bd48670	0.0064857528
14	0x3c9dd569	0.019266801
15	0x3c99e8e2	0.018787805
16	0x3d1f2f91	0.038863722
17	0x3cdeeb53	0.02721182
18	0x3cfaa60f	0.030596761
19	0x3be68fd0	0.0070361868
20	0x3cd8d431	0.026468368
21	0x3c124e82	0.0089298505
22	0x3ca6b958	0.02035205
23	0xbbbc0a7c	-0.0057385545
24	0xba811c6b	-0.0009850388
25	0x3d03ed1f	0.03220856
26	0x3c31ab89	0.01084412
27	0x3c987b57	0.0186135
28	0x3caed36e	0.021341052
29	0x3cb2d09c	0.021827988
30	0x3cbcd2e2	0.023049776
31	0x3c6afb7d	0.014342186
32	0x3cd15840	0.025554776
33	0x3cf689f4	0.030095078
34	0xbacddfea	-0.001570699
35	0xbc99d52a	-0.018778402
36	0xbc666408	-0.014061935
37	0x3c9826b0	0.018573135
38	0x3c67005d	0.014099208
39	0x3c825b84	0.015912779
40	0x3cf76a59	0.030202078
41	0x3d1e3ab1	0.03863019
42	0x3ceeb659	0.029139685
43	0x3a789482	0.00094825786
44	0x3cb2f9e0	0.021847665
45	0x3b8ff0e5	0.0043927305
46	0xbc28887f	-0.010286449
47	0x3be1aeb7	0.0068872827
48	0x3cc5806a	0.024109084
49	0x3cc36454	0.023851551
50	0x3c232b76	0.009959092
51	0x3cc31db1	0.023817869
52	0x3c962cdc	0.018331937
53	0x3a129845	0.0005592148
54	0x3c8c2e76	0.017111998
55	0xbc105b52	-0.008810835
56	0x3cb6b74f	0.022304205
57	0x3c4f947e	0.012669681
58	0x3c009c37	0.0078497445
59	0x3d04c76e	0.032416753
60	0x3d14e184	0.03634788
61	0x3c4a2066	0.012336826
62	0x3ce4938d	0.027902389
63	0x3cbb723e	0.022881623
64	0x3cd3733a	0.02581178
65	0x3bdd9a02	0.006762744
66	0xbc2cdd9c	-0.010550883
67	0x3c22ab9b	0.009928609
68	0x3cf1e610	0.029528648
69	0x3c6383c7	0.013886399
70	0x3cfeb076	0.031090003
71	0x3a6f2738	0.00091229705
72	0x3cc96c00	0.024587631
73	0x3d047224	0.032335415
74	0x3c93753c	0.018000238
75	0x3c05b8e3	0.008161756
76	0x3c89a235	0.01680098
77	0x3c0a893c	0.008455571
78	0x3cb10689	0.021609562
79	0x3bfd9352	0.007738509
80	0xb9e689f3	-0.000439718
81	0x3b817a5a	0.003951353
82	0x3bd71685	0.006563964
83	0x3c14e2fc	0.00908732
84	0x3bf8f209	0.007597212
85	0x3c311a6e	0.010809524
86	0x3b43b140	0.0029860288
87	0x3b999d9f	0.0046879794
88	0xbcfb53f1	-0.030679675
89	0xbc372c87	-0.01118005
90	0x3c0bb05a	0.008525932
91	0x3c8545fa	0.016268719
92	0x3c1004f9	0.008790248
93	0xbbda9f32	-0.0066718096
94	0x3cd73842	0.026271943
95	0x3b714a39	0.0036817922
96	0x39cb33ca	0.00038757763
97	0x3cf7d5b0	0.030253261
98	0x3d24d26f	0.040239748
99	0x3d29aab0	0.041422546
100	0x3c158c66	0.009127712
101	0xbc80c5b2	-0.015719268
102	0x3b89c612	0.00420452
103	0x3ce43085	0.027855167
104	0x3c7c8be7	0.015414215
105	0x3d16fcd5	0.036862213
106	0x3c270008	0.010192879
107	0x3ca2d694	0.01987771
108	0x3cb69844	0.022289403
109	0x3cd3dbd7	0.025861664
110	0x3c33bce1	0.010970325
111	0xbb96af92	-0.0045985663
112	0x3c15c0cf	0.009140207
113	0x3c1d0160	0.009582847
114	0x3ca682d1	0.02032605
115	0x3bff1d70	0.0077854916
116	0xbb85c486	-0.0040822653
117	0x3cc6f90a	0.024288673
118	0x3c9dcc5a	0.019262481
119	0x3cac2df2	0.021018002
120	0x3d2165d8	0.039403766
121	0x3c3503a9	0.011048236
122	0x3c3d771a	0.011564041
123	0xbb29e628	-0.0025924537
124	0x3c753812	0.0149669815
125	0xbbdc76e7	-0.0067280415
126	0x3a0e7408	0.000543416
127	0x3c060695	0.00818028

sequential_1/dense_1/BiasAdd/ReadVariableOp f4 [256]
0	0xbc007e73	-0.007842648
1	0x3d65376c	0.055961058
2	0x3d06008b	0.03271536
3	0x3d35842d	0.044315506
4	0x3c822c1b	0.015890172
5	0x3cd0accf	0.025473027
6	0x3c02bfc5	0.007980292
7	0x3d2dcef2	0.042433687
8	0x3c99124c	0.018685482
9	0xbbe35552	-0.006937661
10	0x3ceaed66	0.028677654
11	0xbafd0739	-0.0019304521
12	0x3d570d53	0.05250294
13	0x3bdb202b	0.0066871843
14	0x3c63bcbc	0.013899978
15	0x3c661288	0.014042504
16	0x3d1e2b04	0.03861524
17	0xbc95ee94	-0.01830224
18	0x3c529954	0.012853939
19	0x3cee2fad	0.029075468
20	0x3cb6129e	0.022225674
21	0x3d31db77	0.04342219
22	0x3d10aa9f	0.035318967
23	0x3c86dc9e	0.01646262
24	0x3cb62360	0.022233665
25	0x3c9f2281	0.019425632
26	0x3d7d1c49	0.061794553
27	0xbd0cde18	-0.034391493
28	0x3caf781b	0.021419575
29	0x3d2f5607	0.04280665
30	0x3a55b04e	0.00081515766
31	0x3c99508c	0.018715166
32	0x3aab57a3	0.0013072382
33	0x3d7937c7	0.06084421
34	0x3b70c093	0.0036735877
35	0x3d0cfe17	0.034422006
36	0x3d545a82	0.051844127
37	0x3ca5e30e	0.02024987
38	0xbbcc7806	-0.006239894
39	0x3cdf2112	0.027237449
40	0x3d2ca7c2	0.042152174
41	0x3d1fc77f	0.039008614
42	0x3d3f1f5f	0.046660777
43	0xbb7e3545	-0.0038789075
44	0xbc8e068b	-0.017337104
45	0x3d5d8096	0.054077707
46	0x3c0c5b08	0.008566625
47	0x3bcccafc	0.0062497836
48	0x3cb5bad2	0.02218381
49	0x3d92f1aa	0.07175
50	0x3c9301ab	0.017945131
51	0x3d000913	0.031258654
52	0x3d00fc93	0.031490874
53	0x3d2b522e	0.04182642
54	0x3ca37357	0.01995246
55	0x3cee00fc	0.029053204
56	0xbcc4b447	-0.024011744
57	0x3d7fb37d	0.062427033
58	0x3d7ce958	0.06174597
59	0x3cb3afdd	0.021934444
60	0x3ce58b71	0.028020592
61	0x3c9a5a7e	0.018841978
62	0x3d400a02	0.046884544
63	0x3cedb057	0.02901475
64	0x3cae6606	0.021288883
65	0x3d6b66ba	0.057471015
66	0x3ca452bf	0.020058988
67	0x3c82b393	0.015954768
68	0x3d2b7f5f	0.041869517
69	0xbc9605e0	-0.018313348
70	0x3c8c378c	0.01711633
71	0x3d2be7a6	0.041968964
72	0x3c66a794	0.01407804
73	0x3ce9bdd8	0.028532907
74	0x3cfadba0	0.030622303
75	0x3bf8566b	0.007578661
76	0xbc251245	-0.010075157
77	0x3cb3abf8	0.021932587
78	0x3a1c1c6d	0.00059551635
79	0x3bad088d	0.0052805603
80	0x3cdc48cd	0.026890183
81	0x3d01b544	0.03166701
82	0x3d39da7e	0.045374386
83	0x3d0dd0a4	0.034622803
84	0x3b487cd9	0.0030591993
85	0xba0efeca	-0.00054548366
86	0x3d5fc569	0.054631624
87	0xbcd58f9f	-0.02606946
88	0x3c0dcba1	0.008654506
89	0x3c849796	0.016185563
90	0x3c2cf098	0.010555409
91	0x3cbcfce6	0.02306981
92	0x3d0831a3	0.033250462
93	0x3c5dfac9	0.013548561
94	0x3bfe69ca	0.007764076
95	0x3c3d3499	0.011548185
96	0x3c5d1a2b	0.013495008
97	0x3cb203a9	0.02173026
98	0x3c7e0756	0.015504679
99	0x3cfb7e3a	0.030699838
100	0x3c47b952	0.01219018
101	0xba8495aa	-0.0010115404
102	0x3cc7432a	0.024324019
103	0x3ce7d0d0	0.028297812
104	0x3c46d458	0.012135588
105	0x3d148fa4	0.0362698
106	0x3a141a48	0.0005649668
107	0x3cc03fe0	0.023467958
108	0x3d07de0f	0.033170756
109	0xbb1a6ff8	-0.0023565274
110	0x3c21c897	0.0098744845
111	0x3d0f0fd5	0.034927208
112	0x3d5a1584	0.053243175
113	0x3d204148	0.039124757
114	0x3d13ba7d	0.03606652
115	0xbbfa1d15	-0.0076328614
116	0xbb88f050	-0.004179038
117	0xba4a9eaa	-0.0007729331
118	0xb6dc8d80	-6.5729837e-06
119	0x3d04bd9c	0.032407388
120	0x3c42aec9	0.011882492
121	0x3d198925	0.037484307
122	0x3d38550a	0.045002975
123	0x3c33fda2	0.010985764
124	0x3cf2c739	0.029636012
125	0x3b0a8896	0.002113854
126	0x3d3d05e4	0.046148196
127	0x3c915ea9	0.017745333
128	0x3d46d507	0.048543002
129	0x3cb2c1b7	0.021820886
130	0x3bcc82fd	0.006241201
131	0x3b5d04e6	0.0033724844
132	0x3c6d701e	0.014492063
133	0x3cad5cd2	0.021162424
134	0x3cb9f79c	0.022701077
135	0x3d5f8e58	0.05457911
136	0x3c7b99b1	0.015356467
137	0x3c11cbfa	0.008898729
138	0x3be2dfb7	0.0069236415
139	0x3b2558f1	0.0025230015
140	0xbc75b924	-0.014997754
141	0x3d56b805	0.05242159
142	0x3c05ea9d	0.008173612
143	0x3b8b10d0	0.0042439476
144	0x3bc7aa3a	0.0060932906
145	0x3d713697	0.05888995
146	0x3ce5aa37	0.028035266
147	0x3bd7d6cf	0.0065868865
148	0x3d14bb76	0.03631159
149	0xbc2f180e	-0.010686887
150	0x3ca8f105	0.02062274
151	0x3d3b162f	0.045675453
152	0xbd4cc179	-0.049989197
153	0x3bfc0a49	0.007691656
154	0xbc02dcfa	-0.007987255
155	0x3c5f6ffc	0.013637539
156	0x3d1f6f2e	0.03892439
157	0xbb0dcf79	-0.0021638556
158	0x3c901178	0.017586455
159	0x3d5be79f	0.053687688
160	0x3cfbb23f	0.030724643
161	0x3d7fb53c	0.062428698
162	0x3cb8b54a	0.022547383
163	0x3d121197	0.035661306
164	0xbc2599be	-0.010107456
165	0x3cd9e19f	0.026596842
166	0x3d440185	0.04785301
167	0x3ca09ba9	0.019605475
168	0x3cb5b919	0.022182988
169	0x3c870a95	0.016484538
170	0x3d69d4d7	0.057087746
171	0xbc52d1ae	-0.012867374
172	0x3c1a9425	0.0094347345
173	0x3cfd89e5	0.030949542
174	0x3ccf464f	0.02530208
175	0x3d35f581	0.044423584
176	0x3c99b2f6	0.018762093
177	0x3c4bda9e	0.012442259
178	0x3d24ff7b	0.040282708
179	0x3ced9fc2	0.029006843
180	0x3d47a096	0.04873713
181	0x3cec180c	0.02882006
182	0x3d2c202e	0.042022876
183	0x3d23fe1d	0.040037263
184	0xbb7e70c7	-0.0038824545
185	0x3d371a07	0.044702556
186	0x3caea4aa	0.021318752
187	0x3ccd156c	0.025034629
188	0x3c769981	0.015051247
189	0xbc9f65fe	-0.019457813
190	0x3d070a82	0.032969005
191	0x3d9db70e	0.077009305
192	0x3c6286de	0.0138261
193	0x3d27e49c	0.040989503
194	0x3d3f69cb	0.04673175
195	0x3cc21b70	0.023694724
196	0x3cb822d1	0.02247754
197	0x3d1ba9b3	0.038003635
198	0xbc64e341	-0.013970197
199	0x3b952545	0.004551562
200	0x3cfff858	0.03124635
201	0x3d209b32	0.039210506
202	0xbd270070	-0.0407719
203	0xbbbffc59	-0.0058589396
204	0x3d419851	0.0472644
205	0x3d3a4e27	0.045484688
206	0x3d0b4256	0.03399881
207	0x3c267f12	0.010162132
208	0x3ca22525	0.019793103
209	0x3b3c6ece	0.0028752568
210	0xbb2db286	-0.0026504113
211	0x3ca78742	0.020450238
212	0x3c5d61eb	0.013512115
213	0x3cc52214	0.024064101
214	0x3d4ca877	0.049965348
215	0x3d006208	0.03134349
216	0x3d373146	0.044724725
217	0x3c9021d7	0.017594261
218	0x3cec6a16	0.02885918
219	0x3c8659a2	0.016400162
220	0x3c7d0d65	0.015445088
221	0x3cd086c5	0.025454888
222	0x3d1cd464	0.03828849
223	0xbc4ebb15	-0.012617846
224	0x3adf45d9	0.0017034366
225	0x3cf40aac	0.029790245
226	0x3c7fb3e0	0.01560685
227	0x3d39b8c0	0.045342207
228	0xba9fc0ce	-0.0012188198
229	0x3c997032	0.018730257
230	0x3c9786d5	0.01849691
231	0x3cc36694	0.023852624
232	0x3d1c66e4	0.03818406
233	0x3c905eae	0.017623272
234	0xbcd5bf42	-0.026092175
235	0x3c129f6c	0.008949142
236	0x3ce4dea8	0.027938202
237	0x3c95d828	0.018291548
238	0xbb96f913	-0.0046073287
239	0x3cded792	0.027202401
240	0x3d96090a	0.07325943
241	0x3d0e69fc	0.034769043
242	0x3cc45b2b	0.023969254
243	0x3c8b55e2	0.017008726
244	0x3c60f688	0.013730653
245	0x3ca33a05	0.019925127
246	0x3c0b57cd	0.00850482
247	0xbc093c92	-0.0083762575
248	0x3cc53e1d	0.02407747
249	0x3d06b3d7	0.032886352
250	0x3d4b3a8a	0.049616374
251	0x3bbbeab7	0.0057347673
252	0x3d8af168	0.06784326
253	0xbbb07155	-0.005384604
254	0x3ac8b4f6	0.001531272
255	0xbc6616c0	-0.01404351

sequential_1/dense_1/MatMul f4 [256, 34]
0	0xbadfc61a	-0.0017072589
1	0xbdcb88c9	-0.09938199
2	0xbb4d8f96	-0.0031366101
3	0x3d9ee5ae	0.07758652
4	0xbd7a955b	-0.061177593
5	0xbdb710b9	-0.089387365
6	0x3d970614	0.07374206
7	0x3db0fc24	0.08641842
8	0xbdba97ef	-0.0911101
9	0x3d209d88	0.039212734
10	0xbd9e1193	-0.07718196
11	0xbe001351	-0.12507369
12	0x3cd4c133	0.02597103
13	0x3d142034	0.036163524
14	0x3e392c9e	0.18083426
15	0x3c3fc3c3	0.011704388
16	0xbdc05fe2	-0.09393288
17	0xbdc71234	-0.09720269
18	0x3c23d14e	0.009998633
19	0x3d950f35	0.07278291
20	0x3d1da832	0.03849048
21	0x3dc4bc00	0.09606171
22	0x3d4312e7	0.04762545
23	0xbd62d3a7	-0.05537763
24	0xbd032cd2	-0.032025166
25	0xbe13c011	-0.14428736
26	0x3d25c531	0.04047126
27	0x3c5a4d95	0.013324161
28	0x3de781ad	0.113040306
29	0x3d9982af	0.07495629
30	0xbd47ff52	-0.048827477
31	0xbe1cba48	-0.15305436
32	0x3d73a45f	0.05948293
33	0xbd3eab16	-0.04654988
34	0x3e41b616	0.18917117
35	0x3dea6cad	0.114465095
36	0xbb20993e	-0.0024505402
37	0x3d25f6ec	0.040518686
38	0x3d52d618	0.051473707
39	0xbdcb0252	-0.09912552
40	0xbd912077	-0.0708627
41	0x3e15a6cd	0.1461441
42	0x3bba41ef	0.0056841294
43	0xbdd5350c	-0.104105085
44	0x3e6c9dfd	0.23107143
45	0xbc8835a5	-0.016627142
46	0xbc5e7cd7	-0.013579569
47	0x3923f744	0.00015637005
48	0x3de6e647	0.11274391
49	0xbe005c6d	-0.12535258
50	0x3e849d1c	0.25901115
51	0x3d449790	0.047996104
52	0x3e25583a	0.16146937
53	0xbc96c25e	-0.018403228
54	0x3e0082b0	0.12549853
55	0xbd36620b	-0.044527095
56	0xbdf54609	-0.11976249
57	0x3e089091	0.13336398
58	0xbc691c6d	-0.014227969
59	0xbd8248b0	-0.0636152
60	0x3e042ea1	0.12908413
61	0xbdb106bc	-0.086438626
62	0x3c88602d	0.016647423
63	0x3d36e9ea	0.04465667
64	0x3dea7ad7	0.11449211
65	0xbd976607	-0.07392507
66	0xbcf770db	-0.03020518
67	0xbd89b5d4	-0.06724134
68	0xbe035be4	-0.12828022
69	0x3dcfaaf9	0.10140032
70	0xbe1b1cd4	-0.15147716
71	0xbda4c5b5	-0.08045522
72	0xbd71a2c4	-0.058993116
73	0x3d62e11a	0.055390455
74	0x3ca72040	0.02040112
75	0xbd6d739d	-0.057971586
76	0xbdb18e38	-0.08669704
77	0x3cc2fc12	0.023801837
78	0xbd9cdbff	-0.076591484
79	0xbdf44123	-0.11926486
80	0xbdca8274	-0.09888163
81	0x3de7ff50	0.11327994
82	0xbd6e8ee7	-0.05824175
83	0x3dc86036	0.09783976
84	0x3dcdb98b	0.10045155
85	0x3db20833	0.0869297
86	0x3d7f7050	0.06236297
87	0xbd693bfc	-0.05694197
88	0xbdc598e0	-0.09648299
89	0xbd9ba571	-0.07599915
90	0xbc0755b3	-0.008260178
91	0xbd9d5368	-0.07681924
92	0x3dd9a591	0.106272824
93	0x3dbd5f16	0.09246652
94	0xbce3f10e	-0.027824905
95	0x3dc4522e	0.09585987
96	0x3e2b7672	0.16744402
97	0xbd15cd72	-0.03657288
98	0x398b95ea	0.0002662384
99	0xbcae6ce0	-0.02129215
100	0xbdcb55a9	-0.09928448
101	0xbded8285	-0.1159716
102	0x3e388fcd	0.18023606
103	0xbc18bfc7	-0.009323067
104	0xbc514970	-0.0127738565
105	0xbdbd6367	-0.09247475
106	0x3d9d879f	0.07691883
107	0xbdab3169	-0.083590336
108	0x3dd411e0	0.10354972
109	0x3dee1887	0.11625772
110	0xbd8f0986	-0.06984238
111	0xbb170a8e	-0.0023047063
112	0xbd30347e	-0.04301881
113	0x3cd73066	0.026268195
114	0xbe1403bf	-0.14454554
115	0xbdf639d2	-0.12022747
116	0x3cd2f388	0.02575089
117	0xbcd21fe3	-0.02564997
118	0x3debd289	0.11514766
119	0xbd9a4ede	-0.07534574
120	0x3c338740	0.010957539
121	0xbdde1d7c	-0.108454674
122	0xbd27f7ee	-0.04100793
123	0xbd844ae9	-0.064596005
124	0x3c792187	0.015205747
125	0xbd2e5532	-0.042561717
126	0xbdb6ebc6	-0.08931689
127	0x3dbcb595	0.092143215
128	0x3dba8f4c	0.09109363
129	0xbd4b2eca	-0.04960517
130	0xbe02525e	-0.12726733
131	0xbd17b33a	-0.03703616
132	0x3e84cfc0	0.2593975
133	0x3e01cd48	0.12675965
134	0xbc526d76	-0.01284348
135	0xbe29f2e9	-0.16596569
136	0xbdf7b89a	-0.12095757
137	0xbd0f01ff	-0.034914013
138	0x3e1992c9	0.149974
139	0x3d419ce3	0.04726876
140	0x3d876424	0.06610897
141	0xbcb262cd	-0.021775628
142	0x3e29263f	0.16518496
143	0xbe1eefca	-0.1552116
144	0x3e0998a6	0.13437137
145	0x3b557280	0.0032569468
146	0xbc3ad914	-0.0114042945
147	0x3d49064f	0.049078282
148	0xbd0ea4e2	-0.034825213
149	0xbdf57cdd	-0.119867064
150	0x3cff14b9	0.031137811
151	0x3dbb819d	0.09155581
152	0x3ceb43ad	0.028718794
153	0xbd309964	-0.043115035
154	0x3dff5d57	0.12468975
155	0xbd24bf7f	-0.040221687
156	0x3dae7688	0.08518702
157	0x3deaef9e	0.114714846
158	0x3c53bfd3	0.012924152
159	0x3d792018	0.060821623
160	0xbd865fb4	-0.06561223
161	0x3acf161a	0.0015799433
162	0x3d6b1e55	0.057401974
163	0xbd03d67b	-0.032186966
164	0xbe200de2	-0.15630296
165	0x3e4d532a	0.20051256
166	0x3df8a116	0.121401
167	0xbd84ef2f	-0.06490933
168	0x3de45744	0.11149457
169	0xbdb88b38	-0.09010929
170	0x3e0679ed	0.13132448
171	0xbdd3ba90	-0.10338318
172	0xbd8dd314	-0.069250256
173	0x3db9e3a4	0.09076622
174	0x3da863f7	0.08222192
175	0x3e66cd56	0.22539267
176	0xbe19b548	-0.1501056
177	0x3e2233c7	0.15840064
178	0x3daae8dd	0.083451964
179	0xbdaba221	-0.08380533
180	0xbd3bd223	-0.0458547
181	0xbd74dac0	-0.05977893
182	0xbd90a659	-0.07062978
183	0x3e426227	0.18982755
184	0xbe07bca3	-0.13255553
185	0x3db4441c	0.08802053
186	0x3cca0d7b	0.024664631
187	0xbe3789a3	-0.17923598
188	0xbd33b492	-0.043873377
189	0xbd8cd109	-0.06875808
190	0x3dd37b1d	0.10326216
191	0x3d7cec37	0.06174871
192	0x3d7a7d52	0.06115467
193	0xbdb39bd6	-0.08769958
194	0x3d828023	0.063720964
195	0x3d8eb32b	0.06967767
196	0xbd0ee3c8	-0.034885198
197	0x3d6efb6c	0.058345243
198	0xbd84a8cf	-0.0647751
199	0xbdb447e7	-0.08802777
200	0xbd5205c7	-0.05127504
201	0x3cb49d56	0.02204768
202	0xbe06e5b0	-0.13173556
203	0xbc238435	-0.009980251
204	0x3ca1ae72	0.019736502
205	0xbdfe0281	-0.12402821
206	0xbda9ffe4	-0.083007604
207	0x3d9bddce	0.07610665
208	0xbd8ea883	-0.06965735
209	0xbbb62c83	-0.0055595054
210	0x3dd652d9	0.10465021
211	0xbd0e2640	-0.034704447
212	0xbd7d4871	-0.061836664
213	0xbdc64fe4	-0.09683207
214	0xbcf397c7	-0.029735459
215	0x3d706fa4	0.05870022
216	0x3e3a36f9	0.18185033
217	0x3dfca9cc	0.12337074
218	0x3d529cc3	0.05141903
219	0xbd10fccf	-0.035397347
220	0xbaebeb95	-0.0017999286
221	0x3e53ac12	0.20671108
222	0xbdc190aa	-0.094514206
223	0xbe09e7d0	-0.13467336
224	0x3da86c91	0.082238324
225	0x3e1712c6	0.14753255
226	0x3e2063ce	0.15663072
227	0x3df22e7e	0.11825274
228	0xbdcc1780	-0.0996542
229	0x3ba3fcdd	0.005004509
230	0x3dc8d257	0.09805744
231	0xbde27e2d	-0.11059222
232	0xbd25b064	-0.040451422
233	0xbe350a78	-0.17679775
234	0xbdfd8e79	-0.1238069
235	0xbe10b969	-0.14133228
236	0x3c441504	0.011967901
237	0x3dc69b00	0.09697533
238	0xbdd9684b	-0.106155954
239	0x3c28b571	0.010297165
240	0x3d44a2c8	0.048006803
241	0x3ca8e6ad	0.020617807
242	0x3e108bd8	0.14115846
243	0x3d385786	0.045005344
244	0xbd864cc9	-0.06557614
245	0xbda4e512	-0.08051504
246	0xbe06c142	-0.1315966
247	0xbdc164d7	-0.09443062
248	0xbd99c698	-0.07508582
249	0xbd7bb842	-0.06145502
250	0xbd8e80cd	-0.069581605
251	0xbca2fb59	-0.019895243
252	0x3dd8813c	0.105715245
253	0xbc86a7c8	-0.016437426
254	0xbc3793ff	-0.011204719
255	0x3d7428d3	0.059609246
