assets/models/symptoms_cat_model.tflite (tflite, 5888 bytes, 6 tensors)

arith.constant f4 [2, 16]
000000 5f d7 0f 3f 30 e9 df be 60 a7 e8 3c 72 8d 1e 3e
       0.56188005 -0.43732595 0.028400123 0.15483645
000010 a7 9f 0a bd 76 09 37 3e 2f fb cf 3e 39 19 cd be
       -0.033843663 0.17874703 0.40621325 -0.40058306
000020 f4 f2 8e be 82 96 b6 be 5f d6 c6 be a9 5b 28 3e
       -0.27919734 -0.35661703 -0.38835427 0.16441216
000030 0b 36 3c be 54 76 90 be 93 58 2f be b5 1c 39 be
       -0.18379991 -0.28215277 -0.17123632 -0.18077357
000040 83 f9 ce 3d 21 1e 08 be 6a d5 d2 3e bf d0 60 be
       0.10106184 -0.13292743 0.41178447 -0.2195463
000050 b5 c7 3a 3e 0d 4c c3 3e 06 ca 82 bc d6 e2 0e 3f
       0.18240245 0.3814396 -0.015965473 0.55814874
000060 18 58 7e 3e 5a cf 2b 3e 81 e2 19 bf 01 4d 79 bd
       0.24838293 0.16778317 -0.6011124 -0.060864452
000070 b1 54 0b bf b3 59 d6 be 5b 4e 01 3f ad e2 c5 be
       -0.54426104 -0.4186531 0.50510186 -0.38649502

arith.constant1 f4 [16, 32]
000000 e2 31 88 be 67 63 8d be 93 0a 32 bd 58 73 5f bd
       -0.26600558 -0.276149 -0.043467116 -0.05455336
000010 c2 e9 71 3e 80 c7 2e b8 01 5b 24 be ee 46 be 3e
       0.23624328 -4.167063e-05 -0.1605034 0.3716349
000020 c8 1e 79 bd 24 57 6a 3c 8e 0e 81 3e a9 b8 8d 3c
       -0.06082037 0.0143030025 0.25206417 0.017299967
000030 56 80 05 3e 75 3f 24 be 6b 53 72 3b 0c 04 3f be
       0.13037238 -0.16039832 0.003697599 -0.18653888
000040 02 e9 90 bd 69 25 9a be bc b5 56 3e 53 bb 77 3e
       -0.07075693 -0.30106667 0.20967764 0.24192552
000050 d7 b4 84 be c5 bb ad 3e e8 43 f0 bd 36 82 5c 3d
       -0.2591922 0.3393232 -0.11731702 0.053835116
000060 ae af 4f 3e d1 d8 f1 3d 85 a2 b0 3e 10 1a ef 3d
       0.2028186 0.118089326 0.34498993 0.11674893
000070 cd 2d 9a be 25 91 e8 3d 0e 90 b6 3e cb 96 0b be
       -0.30113068 0.11355809 0.3565678 -0.13631742
000080 76 22 8e 3d a2 43 d0 bd 9c 6f cc bd 7e 8d 01 3e
       0.06940167 -0.1016915 -0.09982225 0.12651631
000090 1c 1b a2 3d 86 1c 97 3e 2a 71 88 be b2 cf a0 3d
       0.07915327 0.2951395 -0.26648837 0.07852115
0000a0 b5 ee 1c be 24 c8 91 bd 3b 2e 32 3e be 0c 15 3d
       -0.15325435 -0.07118252 0.17400448 0.036389105
0000b0 4d b6 20 3e 10 28 09 be 26 a5 81 be 67 cb 6a 3e
       0.15694542 -0.13394189 -0.2532131 0.22929154
0000c0 f9 33 9a be c6 ec bb bd e6 6c a9 be 53 54 ab be
       -0.30117777 -0.0917602 -0.33090895 -0.33462772
0000d0 01 6f fa bc 8a cc 98 be 1d 0d bb 3d 51 79 1e bd
       -0.030570509 -0.2984355 0.091333605 -0.038689915
0000e0 5d 14 8b be 6e cf 03 be 1c 29 88 3d ab d7 a7 be
       -0.27163973 -0.12872097 0.06648466 -0.3278173
0000f0 12 7d 6e 3e 61 a2 a7 3e a8 88 08 3d eb 8e e8 bd
       0.23289898 0.32741073 0.03333345 -0.113553844
000100 50 62 57 3e 9d 4c 14 3e 2e 13 96 3e 2a c0 1f be
       0.21033597 0.1448235 0.29311508 -0.15600649
000110 9f 21 a5 be 22 8e a8 bc 3a 04 9a 3d a5 b7 a8 3e
       -0.32252213 -0.020575587 0.075203374 0.3295261
000120 f6 86 aa 3e d2 58 b8 3d d6 cd d8 bc e2 81 ae be
       0.33306092 0.09001316 -0.026465338 -0.34083468
000130 31 ac 0a bd a0 ad 02 be c2 a3 d5 3d 8d 5b 97 3e
       -0.03385562 -0.12761545 0.10431625 0.29562035
000140 49 0f 07 bc cd 3a 83 be ab 84 b4 be 83 5c 25 3e
       -0.00824339 -0.256308 -0.35257468 0.16148572
000150 f0 f5 99 be c0 88 7f 3e 36 6a 99 3e 08 9c 6c 3c
       -0.30070448 0.2495451 0.29963845 0.014441498
000160 e3 67 4c 3e 4d 76 39 3e 98 8a 63 be e2 7e 28 3e
       0.19961505 0.18111534 -0.22220838 0.16454652
000170 3f f6 18 be dd 8f 9b 3e 05 92 a9 3e ec f5 7d be
       -0.14937685 0.30383196 0.33119217 -0.24800843
000180 e1 7c 87 3e 71 fa 7a 3e 30 ea b7 3e 08 aa ca bc
       0.26462463 0.24509598 0.35920858 -0.02473928
000190 35 e6 77 3d 8a 3f c1 3d c2 a5 7f 3d 75 cc ac 3d
       0.060522277 0.09435947 0.06241394 0.084374346
0001a0 41 50 02 3e f0 1b 9a 3e 54 8e 33 be ee fe 57 bd
       0.12725927 0.3009944 -0.17534763 -0.052733354
0001b0 f1 14 5b be d2 83 10 3e 2e 01 a1 3e 51 34 1a be
       -0.21394707 0.14112785 0.31446213 -0.1505902
0001c0 fa 83 32 3e 91 9f 20 3e d0 7c 4d 3e 67 99 d9 bd
       0.17433158 0.1568587 0.20067143 -0.10624962
0001d0 be 03 b6 3d db c0 ae be 84 d4 97 be aa 14 60 be
       0.088874325 -0.34131512 -0.29654324 -0.21882883
0001e0 58 c9 e2 bd 6e 88 17 3e 83 e8 b5 3e c9 bc 0e be
       -0.110735595 0.14798138 0.35528955 -0.13939203
0001f0 a8 92 13 be 26 37 8d 3d 06 de 19 be b1 bf 67 3e
       -0.14411414 0.06895284 -0.15026101 0.22631718
000200 17 66 8a be c5 6f 4a 3e 2a 58 80 3e 56 34 0f 3b
       -0.27031013 0.19769199 0.25067264 0.0021851263
000210 24 e6 77 bd b2 2e ba be 0c 34 74 be 9b 18 52 3e
       -0.060522214 -0.3636375 -0.2384798 0.20517199
000220 e9 2a a6 3d f8 d5 a9 3e cb 35 0c be 18 cc 44 3e
       0.08113653 0.33171058 -0.13692395 0.1921848
000230 4e 39 db 3c fe 40 97 3e 00 2e 9f be 37 49 b9 3e
       0.026760723 0.29541773 -0.31089783 0.3618867
000240 db 09 06 3e 53 7b 72 3e 9f 9f 31 3e 32 97 dc 3d
       0.13089697 0.23679857 0.17346047 0.10771026
000250 b4 5d 61 3e dc 52 94 bd 86 13 aa 3e a1 cd a7 be
       0.22008401 -0.07242367 0.3321802 -0.3277407
000260 79 73 2b 3e e9 76 49 be b4 a8 6a be d7 d6 8b bd
       0.16743268 -0.19674267 -0.22915918 -0.06828087
000270 fb da d2 bd c8 06 00 be ca e8 98 be 37 58 85 3b
       -0.102956735 -0.12502587 -0.29865104 0.004069354
000280 3c 67 7f be 46 26 50 3c 94 80 9e bd 2e 44 ff bd
       -0.24941725 0.012704438 -0.07739368 -0.12464176
000290 b7 d6 89 3d 7a b8 a8 be d5 ce 88 3e 43 88 bc bd
       0.06730407 -0.32953244 0.267203 -0.09205677
0002a0 56 bd d0 bd 89 ca 6c 3e 40 68 3e bd 20 7b 76 3d
       -0.10192363 0.23124136 -0.04648614 0.060176015
0002b0 cf a3 1f 3e 65 3f e6 3c b8 38 91 be 00 48 8f be
       0.15589832 0.0281064 -0.28363585 -0.2798462
0002c0 c0 f9 31 3d 29 32 75 3d cf 57 9d bd 5e 0d 89 3e
       0.04345107 0.05986229 -0.07682764 0.2676801
0002d0 dd 4a 86 3e 5d c2 77 bc bc df 01 be 00 ec b5 3e
       0.2622899 -0.015122023 -0.12683004 0.35531616
0002e0 4e b1 2b be ab 71 9b be 6a ca 80 3d d7 85 f0 bd
       -0.16766855 -0.3036016 0.062886074 -0.11744278
0002f0 b5 01 a4 be e4 7f e0 3b 6b 16 1a be 46 2d ad be
       -0.32032552 0.0068511833 -0.15047614 -0.33823603
000300 53 71 3a be 67 85 8e bd 7f a7 3b 3e 79 d2 8c 3c
       -0.18207292 -0.06959038 0.18325613 0.017190205
000310 e1 52 05 be ac 42 2a bd 99 87 62 3d 36 fc 50 3e
       -0.13019897 -0.04156749 0.055305097 0.20408711
000320 1f a3 1a be 3e 34 85 be 0e 0a 7a be 7f 2a 2e be
       -0.15101288 -0.2601642 -0.24417898 -0.17008398
000330 a3 ed d4 3d 90 28 d0 bd 45 d8 54 be 00 76 75 be
       0.10396888 -0.10163987 -0.20785625 -0.23970795
000340 70 ac 2f 3d 03 10 36 be e9 d8 57 bd 50 4e ae 3d
       0.04288906 -0.17779545 -0.052697096 0.08511031
000350 97 ea 25 be f3 09 be 3b 1e f2 88 3e d7 9e c0 bd
       -0.1620277 0.005799526 0.2674722 -0.09405296
000360 f6 ff 89 3e 6e 1a db 3c 9e fe ad 3b ea 44 05 3c
       0.26953095 0.026746001 0.0053098937 0.008134106
000370 97 11 99 3e 75 56 83 3e fd 04 ae 3d 3b d8 60 3e
       0.29896232 0.256519 0.08497045 0.21957485
000380 5a 2a 9f bc 84 63 9f 3d e0 d9 98 3e b4 54 f3 bd
       -0.019429374 0.07782653 0.29853725 -0.1188139
000390 37 07 47 3e 52 d7 58 be 3e fe 9a 3d 82 57 a4 be
       0.19436346 -0.21175888 0.07568024 -0.32098013
0003a0 66 3d 34 3e 0b a4 98 3e b0 30 1e be 68 af 00 3d
       0.17601547 0.29812655 -0.1544826 0.03141728
0003b0 95 ee 86 3c 76 e5 a0 3e e9 60 a4 3d 05 22 bb 3e
       0.016471187 0.31425065 0.08026297 0.36549392
0003c0 00 07 24 be a8 63 8b 3e b4 09 3b be 3a ea 9e be
       -0.16018295 0.2722447 -0.1826542 -0.31038076
0003d0 91 6e bf 3d eb 57 a5 3e 51 54 50 be 34 43 58 3e
       0.09347261 0.3229364 -0.20344664 0.21119386
0003e0 cb 3c a1 bd 38 5e 4a 3e 90 4d a9 3d c9 a7 2f bd
       -0.078729235 0.19762504 0.08266747 -0.04288462
0003f0 ce cf 96 3e 94 da ad be 48 cd c5 3c 18 d5 8f be
       0.29455417 -0.33955824 0.024145737 -0.28092265

arith.constant2 f4 [2]
000000 f8 2f aa 3c f8 2f aa bc
       0.020774826 -0.020774826

arith.constant3 f4 [16]
000000 6f 4d c9 3c be ea 0d 3c f5 3d 2a bc 25 3e af 3c
       0.024573056 0.008661924 -0.010390748 0.021391938
000010 53 13 a5 bc 9d 17 03 bb cd 4a bd 3c 42 87 96 bc
       -0.020150816 -0.0020003088 0.023106957 -0.018375043
000020 a4 23 6c bc 84 03 b9 3b 63 d5 bf 3c 72 b8 ad 3c
       -0.014412794 0.005646171 0.02341718 0.021206114
000030 8c 74 5a bc cc 3b 1c bb 4b 58 0e 3b 03 63 ae bc
       -0.013333451 -0.0023839353 0.0021720107 -0.021287447

sequential_1_1/dense_3_1/BiasAdd/ReadVariableOp f4 [32]
000000 ae 16 03 bc b1 82 13 bc c1 ed 8b 3b 10 73 cb 3a
       -0.008001013 -0.009003327 0.004270286 0.0015521962
000010 11 ec 2b bc 01 6f 8b 3c 87 3b 3d 3c 93 59 c6 3c
       -0.010493294 0.017020704 0.011549837 0.024212634
000020 30 ce 87 bc 9f d6 7a bc eb 54 9e 3c 5b 37 89 3b
       -0.01657781 -0.015309959 0.019327601 0.004187507
000030 93 12 13 3c b3 8d ae bc e9 04 f3 bb bb a3 8e 3b
       0.008976596 -0.021307802 -0.007416357 0.0043530143
000040 e3 73 a6 bc 3e 68 bc bc d4 fd b1 3c 86 47 ad 3c
       -0.020318931 -0.022998925 0.02172748 0.02115227
000050 6e 49 ac bc e0 ca 02 3c ae aa ac bb c6 b0 b8 3b
       -0.021031108 0.0079829395 -0.00526937 0.0056363074
000060 8d 95 80 3c f2 8a 80 bc 40 db a7 3c d4 8f de bb
       0.015696311 -0.015691254 0.020490289 -0.006792048
000070 37 6b aa bc 78 87 ba 3c d0 49 bd 3c 29 d8 a4 3c
       -0.020803077 0.022769675 0.023106486 0.020122604

sequential_1_1/dense_3_1/MatMul f4 [32, 11]
000000 0e 9c 93 be 19 bf 06 bd 2c 2d a2 b9 52 2f da bc
       -0.28829998 -0.03289709 -0.00030932704 -0.026633892
000010 64 22 4c 3e e7 0d 99 be 22 ff a9 be 65 8b a4 3e
       0.19934994 -0.2989342 -0.33202463 0.321376
000020 ec 46 80 3e 5d 29 9a 3e 65 90 a7 be 02 bb 64 3e
       0.2505411 0.30109683 -0.32727352 0.22336963
000030 ff 71 10 be d6 8a af be b4 ec 02 3e d3 60 c2 bd
       -0.14105986 -0.3428561 0.12785608 -0.09491124
000040 cd 74 1d bc 35 bc ae be ff 9d af 3e 3a 92 73 be
       -0.009610367 -0.34127966 0.3430023 -0.2378625
000050 3e e9 00 3e 50 c3 b9 be 5d 3b 8d be 3e 90 e0 bd
       0.12588975 -0.36281824 -0.27584353 -0.10965012
000060 db 04 4c be e0 d3 b1 be 70 b9 9e be a3 f1 bd 3e
       -0.19923727 -0.3473196 -0.31000853 0.37098417
000070 84 7a 08 3e 65 cf 5a be 60 61 cc bd 64 27 9d be
       0.13327986 -0.21368177 -0.0997951 -0.30694115
000080 25 58 02 be 6f 64 02 3e b5 f6 8d 3e 43 f8 b9 3e
       -0.12728937 0.12733625 0.27727285 0.3632222
000090 54 de b8 be a8 f8 91 be 35 98 53 be da e0 d1 3d
       -0.36107123 -0.28510022 -0.20663531 0.10247965
0000a0 f3 0f 5e 3e b0 14 28 3e dc 4b 80 3e b1 36 52 be
       0.21685772 0.16414142 0.25057876 -0.20528676
0000b0 49 d8 f8 bd ac e8 0d 3e d5 a4 03 3a 3a f0 b5 be
       -0.12150628 0.13858289 0.00050218153 -0.3553484
0000c0 04 37 44 3e 3d 7f ab 3e 87 ff 1c 3e e0 fd 60 3e
       0.19161612 0.33495513 0.15331851 0.21971846
0000d0 50 65 59 be ae 64 61 be 4b ac ad bd 88 ba aa be
       -0.21230054 -0.22011063 -0.08480128 -0.33345437
0000e0 f1 b7 7a be a0 55 f9 3c 02 ab b8 3e eb 06 0a be
       -0.2448423 0.030436337 0.3606797 -0.13479201
0000f0 53 f7 ac 3e 66 88 00 3d 4b c9 61 be 2e 61 a2 3e
       0.33782443 0.03138008 -0.22049443 0.31714767
000100 cf 6c 64 be 05 1a b2 3e c9 c4 ba be d5 5d 7d 3e
       -0.22307132 0.34785476 -0.3647826 0.24742825
000110 4c 54 08 3e eb 2a 99 3e 02 17 a5 be a4 88 1a 3e
       0.13313407 0.29915556 -0.32244116 0.15091187
000120 a3 15 60 be ed 60 94 be ac e5 9f 3e 56 f0 18 3e
       -0.21883254 -0.28980199 0.31229913 0.14935431
000130 56 2e 3d be cd 69 9b 3e 00 7c 92 bd eb 1c 65 3e
       -0.18474707 0.30354157 -0.071525574 0.22374313
000140 35 26 66 bd be de 8f 3e 23 27 19 3c aa 6c 39 be
       -0.05618878 0.28099626 0.00934771 -0.18107858
000150 2c b0 54 be dc c0 8d 3e ac 44 6e bd f6 db 8f 3e
       -0.20770329 0.27686203 -0.05817096 0.28097504
000160 c8 3a 71 3e a0 59 d5 3d 1c d2 6f 3d 01 2b 28 bc
       0.2355758 0.10417485 0.058549985 -0.010264159
000170 31 79 7b 3e aa 69 73 be 5b 56 b7 3d b0 5d fb bc
       0.2455795 -0.23770776 0.08952018 -0.030684322
000180 5a af b5 be 65 f7 55 3e 26 fb a0 be ca 02 49 bd
       -0.35485345 0.20895155 -0.3144161 -0.049074925
000190 5c 78 b1 3e 4f f6 97 3e 92 67 86 3e 23 37 a3 be
       0.3466214 0.29680106 0.26250893 -0.31878003
0001a0 c2 29 3a be 5a 09 86 be 9a 5d a3 bd a1 19 b0 3e
       -0.18179992 -0.2617901 -0.079768375 0.34394553
0001b0 06 12 ca 3e b3 23 38 3e de 78 74 bd e6 99 c1 3e
       0.39466876 0.17982368 -0.05968558 0.37812728
0001c0 56 75 0d 3e a5 cb 5a be c4 98 66 3e 16 de b8 3e
       0.13814291 -0.21366747 0.22519213 0.36106938
0001d0 85 00 87 3e 55 b7 38 3e 69 62 7a 3c e5 b8 03 3e
       0.26367584 0.18038686 0.015282252 0.128635
0001e0 f2 96 9e be cd 7a a4 bd 02 b6 20 be 6e 57 9e 3e
       -0.30974537 -0.08031235 -0.1569443 0.3092608
0001f0 0d 7a ac be 6e 0a 3a be 96 a1 2f 3e aa 83 59 bd
       -0.33686867 -0.18168041 0.17151484 -0.05310408
000200 8e 38 b0 be 57 57 be 3e 72 be 08 3b 77 66 8e 3e
       -0.34418148 0.3717601 0.0020865467 0.2781255
000210 8e 24 87 be 8a c6 7e be f7 4b 35 3c 25 c1 ab 3c
       -0.26395077 -0.24880424 0.011065475 0.020966122
000220 23 98 e0 3b 7d 2f 79 3e 38 9c 87 3e bc 5f 9a 3e
       0.0068540736 0.24334522 0.26486373 0.30151165
000230 91 63 72 be 60 1b 70 ba aa 9b c9 bc a7 f1 2e be
       -0.23670794 -0.00091593526 -0.02461036 -0.1708437
000240 ce 73 67 3e 78 5e 81 be 80 85 72 3d 58 82 4d 3e
       0.2260277 -0.25267386 0.059209347 0.20069253
000250 3e 37 99 be 5a a0 eb 3c be ef 7b 3d 99 35 47 3e
       -0.2992496 0.028762985 0.061507933 0.1945404
000260 50 95 bf 3e 65 7c 4d bd 1d 36 a4 3d 0c 9b 03 3d
       0.37418604 -0.05016746 0.08018134 0.032130286
000270 6d 46 17 be 73 d0 a0 be bf b0 6c 3e 2f 77 a4 be
       -0.14772959 -0.31409034 0.23114298 -0.3212218
000280 b6 f6 a9 be 79 56 a0 3c 10 fd 87 be 84 9e 03 3e
       -0.33196038 0.019572483 -0.2656026 0.12853438
000290 51 e8 97 3d cc a8 6d be 08 f6 60 3e 09 48 aa 3e
       0.07417358 -0.23208922 0.21968853 0.33258083
0002a0 c9 76 0d 3d ee 4c 97 be 0c e3 75 bd 7b a0 8c 3e
       0.03453711 -0.2955088 -0.060030982 0.27466187
0002b0 77 c5 35 3e 05 7d da 3d c0 68 99 3e a2 92 ac 3e
       0.17751108 0.10668377 0.2996273 0.33705622
0002c0 37 51 7f be 2e 91 d7 3d ce d8 78 be cb db 54 3e
       -0.24933325 0.10525738 -0.24301454 0.2078697
0002d0 be 3c 3d be f7 e0 a1 be 06 1a b4 be 51 c1 51 3e
       -0.18480203 -0.31616947 -0.35176104 0.204839
0002e0 e9 b8 3d bd 1a 86 f4 bd bf 39 80 3e 76 55 5a 3e
       -0.046318922 -0.1193964 0.25044057 0.21321663
0002f0 57 f0 94 3e 49 7c 83 3e 31 5c 09 3d db f9 23 3e
       0.29089615 0.2568076 0.033535186 0.16013281
000300 06 c4 59 3e 11 71 2e 3e 76 60 94 be 3b b7 9b be
       0.21266183 0.17035319 -0.28979844 -0.3041323
000310 4d 0d 15 bd fd 04 1d 3e 14 b8 8e 3e 7a eb c1 3e
       -0.036389638 0.15333934 0.27874815 0.37874967
000320 01 c6 9a 3e b5 2b 1c be cd 8e 88 3e 1a 4f 51 3d
       0.3022919 -0.15251048 0.26671448 0.051100828
000330 fa f1 ad be 24 2c a8 be 17 04 9f 3a cd 2d 27 bb
       -0.33973676 -0.32846177 0.0012131956 -0.0025509477
000340 e4 39 94 3e 29 80 2b 3e 14 90 b1 3e b1 f9 97 be
       0.28950417 0.16748108 0.34680235 -0.29682687
000350 9b 43 2e bc 56 ee 2d bd 00 d9 f1 3d 80 2b 97 be
       -0.010636236 -0.042463623 0.118089676 -0.29525375
000360 e2 b1 79 be ea 9f a0 be a1 25 9a 3e 9e d3 80 be
       -0.24384263 -0.31372005 0.30106834 -0.2516145
000370 49 45 5f be 1b 20 c2 3d 95 f0 97 be 4c d4 b3 be
       -0.21803774 0.0947878 -0.29675737 -0.35122907
000380 5f 1d 94 3d 01 5d 19 3e ce 62 91 3e 10 fa 95 be
       0.072321646 0.14976884 0.28395694 -0.29292345
000390 d9 78 b6 3e 8b 40 f3 bc 7f 47 b4 3e 67 7d 90 be
       0.35639074 -0.029693862 0.35210797 -0.28220674
0003a0 4c 7c 9a be f3 73 56 be e1 30 81 3e 69 c4 c3 3d
       -0.30172956 -0.20942669 0.25232604 0.09558947
0003b0 bd c4 12 be fe a8 ae 3d aa 09 55 3e 19 01 62 bd
       -0.14332862 0.085283265 0.20804468 -0.055176828
0003c0 47 cd 57 bb 3e 26 9c 3e 9b f6 8a be f3 f7 a1 be
       -0.0032928751 0.30497926 -0.2714127 -0.31634483
0003d0 a3 1f be 3b 9b 04 bf 3e 40 c3 e7 bc 31 4f 01 be
       0.0058021112 0.373082 -0.028291345 -0.12627865
0003e0 98 aa a1 be 25 8b a0 3e 38 34 8b be cb de ae bc
       -0.31575465 0.3135616 -0.27188277 -0.02134647
0003f0 64 e0 b2 3d 18 85 1b be 2c 4b 66 be e9 7b 46 be
       0.08734205 -0.1518749 -0.22489613 -0.19383205
