assets/models/symptoms_dog_model.tflite (tflite, 6016 bytes, 6 tensors)

arith.constant f4 [2, 16]
0.40344304 0.25435507 0.16345978 0.21209043 -0.033475466 -0.26474863 -0.13643596 -0.28919098
-0.0897547 -0.4566384 -0.20243376 0.33621833 -0.2486924 -0.26091966 -0.3533884 0.07323635
0.07497051 -0.4588741 0.032453306 0.5149401 0.5023822 0.11215611 0.11423009 -0.12579134
-0.02037466 0.18653256 -0.48427585 0.15095097 -0.13636613 -0.47202155 -0.24924771 -0.5127729
00000000: 1690 ce3e d43a 823e 0062 273e 3c2e 593e
00000010: 921d 09bd 228d 87be deb5 0bbe d710 94be
00000020: 50d1 b7bd 82cc e9be cc4a 4fbe cf24 ac3e
00000030: 38a9 7ebe 4397 85be 53ef b4be f1fc 953d
00000040: 248a 993d 8cf1 eabe c2ed 043d 1dd3 033f
00000050: 1f9c 003f 1ab2 e53d 77f1 e93d 72cf 00be
00000060: c2e8 a6bc 6402 3f3e 01f3 f7be e492 1a3e
00000070: 90a3 0bbe cfac f1be cb3a 7fbe 1645 03bf

arith.constant1 f4 [16, 32]
-0.23612982 -0.34359264 -0.24550016 -0.1340533 -0.024271498 0.16675138 0.22952537 -0.16224974
-0.040100295 0.29743537 0.009713603 -0.28189287 -0.22628005 -0.24286354 0.1680719 -0.07115232
-0.30464926 -0.14109893 0.23382631 0.113079734 0.13021214 -0.21902083 -0.22138664 -0.013159794
-0.24393739 -0.109055735 -0.106562436 -0.1308276 -0.2962559 0.01602067 0.0028493432 0.23799473
-0.18405518 -0.21667045 0.1347583 -0.19480865 -0.0036168564 -0.22586402 0.20938376 0.25886986
-0.1894885 -0.17336431 -0.26877463 -0.18371677 0.14094457 0.14429714 -0.22011966 -0.14986107
0.12888865 0.30329973 0.13651456 -0.22433855 0.11854432 0.33694035 -0.26772174 -0.15045455
0.12920679 -0.287338 -0.057751685 -0.112230316 -0.11939177 -0.28299037 0.067097 0.23139293
0.32285017 0.054427 -0.049835674 -0.3011389 0.26509672 0.06524272 -0.028182287 0.095543355
0.14232644 0.091978185 -0.22779958 -0.31056738 0.07072232 -0.2867051 0.23547657 -0.2682137
0.1748217 -0.00717574 -0.025835881 -0.19653453 0.09586839 0.10783719 -0.29563874 -0.32346553
0.02863531 -0.29821184 -0.09205233 -0.08055511 -0.29317242 -0.010710089 0.26831952 -0.3150074
0.067484826 -0.27890137 0.026991967 0.13155614 -0.28966868 -0.1448741 -0.27190736 -0.11310443
0.041707713 -0.10136391 0.3318986 0.06734942 -0.18346612 0.14065059 0.117060564 -0.055085473
0.12094529 0.2086771 -0.08599007 0.066947766 -0.2716361 0.060329 -0.25430715 -0.23000912
-0.3050716 0.11188012 0.08646781 -0.33209962 0.3421635 -0.26488915 0.17124082 -0.23742697
0.3492054 0.14591627 0.058689296 -0.30089673 0.13960849 -0.063186705 -0.25278515 -0.28744304
0.11872429 -0.016658993 -0.2973724 -0.029933434 0.19897015 0.1002113 0.32703486 -0.06449857
0.15764076 0.32765433 -0.23222108 -0.27039003 0.1430108 -0.022482473 0.07212901 -0.27601877
0.25523436 0.09429741 0.08409884 -0.23135155 0.19155256 -0.3492427 -0.29933435 -0.24116813
0.19616987 -0.30202088 -0.15614368 -0.25912157 -0.052943807 0.04760988 0.18082717 0.26587576
-0.13493234 -0.27401766 0.15725926 -0.008456824 0.100483276 0.33733407 0.086769186 0.36647445
-0.2478802 0.33593813 -0.15632044 0.032680936 0.009350012 -0.14881124 -0.1827564 0.36585683
-0.08408928 -0.3237202 0.36175805 0.031935245 -0.18661802 -0.27704024 -0.07918502 -0.059974555
-0.043585166 0.26827136 0.15247457 -0.33303282 -0.1527981 -0.34503636 0.031905983 -0.096422955
0.20893914 0.0032696724 0.23742741 -0.14004575 0.22161996 -0.33716103 -0.0081932545 -0.20142055
-0.30377313 -0.011932989 -0.11264179 0.17997044 0.17617123 -0.309378 -0.0043401523 -0.070210755
0.016631212 0.10760466 -0.052631658 -0.34534746 -0.27564538 -0.2795776 0.1667089 0.018647555
-0.05478915 -0.15359062 -0.01137033 -0.26180172 -0.34041822 0.03062655 0.06736544 -0.051063076
0.18217328 0.057119533 -0.2347702 -0.18158214 -0.17019759 -0.32047972 0.23490615 0.0039146794
-0.116676636 0.2402761 -0.1334882 0.22755724 -0.22042905 -0.09652711 -0.075296305 0.23576203
0.23847844 0.051813554 0.29021657 0.3524492 0.1959527 0.3120424 0.20001361 -0.08651799
00000000: 04cc 71be 60eb afbe 6564 7bbe 4545 09be
00000010: 05d5 c6bc e0c0 2a3e b308 6b3e cc24 26be
00000020: 3540 24bd 7349 983e ce25 1f3c 4354 90be
00000030: f5b5 67be 38b1 78be 0a1b 2c3e 4fb8 91bd
00000040: fdfa 9bbe 3d7c 10be 2a70 6f3e 5996 e73d
00000050: 5556 053e ff46 60be 2eb3 62be 2d9c 57bc
00000060: b9ca 79be 9d58 dfbd 683d dabd acf7 05be
00000070: daae 97be c83d 833c 0cbc 3a3b e4b4 733e
00000080: f678 3cbe dcde 5dbe 14fe 093e eb7b 47be
00000090: c808 6dbb e648 67be b268 563e 978a 843e
000000a0: 4609 42be 6a86 31be d49c 89be 4020 3cbe
000000b0: c653 103e a1c2 133e 0c67 61be 2e75 19be
000000c0: 63fb 033e 1a4a 9b3e 79ca 0b3e 01b9 65be
000000d0: 5dc7 f23d 7283 ac3e d312 89be c210 1abe
000000e0: c94e 043e f71d 93be 088d 6cbd 02d9 e5bd
000000f0: ac83 f4bd 1de4 90be 276a 893d 45f2 6c3e
00000100: 9e4c a53e d9ee 5e3d 7e20 4cbd e12e 9abe
00000110: c2ba 873e fa9d 853d 8ade e6bc 3cac c33d
00000120: 06be 113e 0f5f bc3d 4b44 69be b002 9fbe
00000130: ddd6 903d 03cb 92be c520 713e 4e53 89be
00000140: 7604 333e 7822 ebbb c5a5 d3bc 5940 49be
00000150: a556 c43d bfd9 dc3d f65d 97be 469d a5be
00000160: 9994 ea3c 39af 98be ef85 bcbd 14fa a4bd
00000170: b21a 96be 5e79 2fbc 2d61 893e a648 a1be
00000180: 7c35 8a3d 29cc 8ebe 421e dd3c a7b6 063e
00000190: 744f 94be e059 14be 7137 8bbe 4ca3 e7bd
000001a0: b5d5 2a3d e297 cfbd 9dee a93e 7eee 893d
000001b0: 8bde 3bbe b506 103e 73bd ef3d 4ea1 61bd
000001c0: 2ab2 f73d 73af 553e 901b b0bd e91b 893d
000001d0: e313 8bbe 8b1b 773d 8c34 82be 8387 6bbe
000001e0: 5832 9cbe 6821 e53d 0916 b13d f608 aabe
000001f0: 0e30 af3e 8d9f 87be c159 2f3e 0e20 73be
00000200: 0dcb b23e 136b 153e 3064 703d 230f 9abe
00000210: 87f5 0e3e 0868 81bd 0e6d 81be bc2b 93be
00000220: b825 f33d 7178 88bc 3241 98be f636 f5bc
00000230: d5be 4b3e 953b cd3d 1d71 a73e d417 84bd
00000240: 946c 213e 4fc2 a73e 5dcb 6dbe 9070 8abe
00000250: 6c71 123e 2a2d b8bc 60b8 933d 5552 8dbe
00000260: 14ae 823e 001f c13d 033c ac3d 6ce7 6cbe
00000270: 5b26 443e f0cf b2be 5a42 99be c7f4 76be
00000280: c1e0 483e 7ba2 9abe 21e4 1fbe 95ab 84be
00000290: 9bdb 58bd 9402 433d c22a 393e de20 883e
000002a0: b42b 0abe 0b4c 8cbe 9208 213e 7e8e 0abc
000002b0: 2dca cd3d 0db7 ac3e 0bb4 b13d 8aa2 bb3e
000002c0: 4fd4 7dbe 1500 ac3e 7712 20be 72dc 053d
000002d0: cb30 193c f961 18be 7e24 3bbe 9651 bb3e
000002e0: 0037 acbd a7be a5be 5a38 b93e 88ce 023d
000002f0: cb18 3fbe 38d8 8dbe c12b a2bd e1a7 75bd
00000300: 5c86 32bd dd5a 893e 4b22 1c3e 4783 aabe
00000310: 1b77 1cbe 9ba8 b0be d9af 023d 6679 c5bd
00000320: 24f4 553e 0048 563b 2c20 733e 2768 0fbe
00000330: 58f0 623e 5fa0 acbe 003d 06bc 3041 4ebe
00000340: 2788 9bbe 9582 43bc bdb0 e6bd 2c4a 383e
00000350: 3b66 343e cb66 9ebe d637 8ebb a8ca 8fbd
00000360: 2e3e 883c d55f dc3d 4b94 57bd 62d1 b0be
00000370: 6421 8dbe cc24 8fbe bdb5 2a3e c2c2 983c
00000380: 966a 60bd dc46 1dbe 9f4a 3abc e00a 86be
00000390: 4c4b aebe 88e4 fa3c e4f6 893d 8427 51bd
000003a0: a28b 3a3e 2cf6 693d 9967 70be abf0 39be
000003b0: 4748 2ebe eb15 a4be 3d8b 703e b646 803b
000003c0: 29f4 eebd f00a 763e 21b1 08be c404 693e
000003d0: 27b8 61be 01b0 c5bd f334 9abd 9a6b 713e
000003e0: b133 743e 733a 543d 4497 943e 3974 b43e
000003f0: d3a7 483e 05c4 9f3e 5ed0 4c3e 5830 b1bd

arith.constant2 f4 [2]
0.023724139 -0.023724139
00000000: 2059 c23c 2059 c2bc

sequential_1/dense_1_2/BiasAdd/ReadVariableOp f4 [16]
0.0129361795 -0.017520765 -0.009055675 0.015802393 -0.005019339 0.02275232 0.0044065975 -0.023540743
-0.021397037 -0.01273587 0.017602876 0.025187416 0.016775401 0.013429241 -0.019808952 0.024435971
00000000: 45f2 533c b587 8fbc 415e 14bc 0574 813c
00000010: 4479 a4bb 1363 ba3c 3865 903b 84d8 c0bc
00000020: d748 afbc 1caa 50bc e833 903c d755 ce3c
00000030: 916c 893c 5206 5c3c 6246 a2bc f22d c83c

sequential_1/dense_1/BiasAdd/ReadVariableOp f4 [32]
0.024964679 -0.016496634 -0.018654779 -0.015268731 -0.013917095 0.018492417 0.024532089 -0.022603033
-0.010106623 0.021042544 -0.0031498736 -0.023790644 -0.011644355 -0.019547312 -0.003946582 0.019378753
-0.02133134 -0.010404756 0.023445876 0.0150797125 -0.0051957546 -0.01270226 0.013400059 0.02290741
-0.015058418 0.009845113 -0.015671132 0.0 0.014547113 0.009848337 -0.017757356 0.023605091
00000000: ba82 cc3c f323 87bc e8d1 98bc b329 7abc
00000010: 8704 64bc 697d 973c 85f7 c83c ff29 b9bc
00000020: 4096 25bc 6a61 ac3c 1c6e 4ebb 99e4 c2bc
00000030: f7c7 3ebc af21 a0bc 5452 81bb 31c0 9e3c
00000040: 10bf aebc b678 2abc 9111 c03c e610 773c
00000050: 2641 aabb 241d 50bc ec8b 5b3c 52a8 bb3c
00000060: 95b7 76bc 664d 213c bf60 80bc 0000 0000
00000070: 0457 6e3c eb5a 213c e077 91bc 775f c13c

sequential_1/dense_1/MatMul f4 [32, 12]
0.23033112 -0.23692305 0.26568365 -0.19378895 0.354181 -0.010640217 -0.2890373 0.11217448
0.1729237 0.13123007 -0.29430312 0.12089385 0.008640121 0.2489029 0.22703189 -0.1980363
-0.1247894 -0.26073408 -0.29743856 -0.107790366 -0.29856944 0.2679208 0.2684446 0.28896344
-0.041324962 -0.15442587 0.0898618 0.114831746 -0.3608243 0.04813663 -0.25103337 -0.062000602
-0.0005158045 -0.3374665 -0.15520203 0.06686495 0.1975461 0.010207035 -0.38361272 0.063397914
0.26160437 0.35182524 0.27500686 0.041219298 0.041297235 -0.3489882 -0.3828301 -0.22490561
-0.03822626 -0.09951569 0.16911376 0.2187406 -0.27933675 -0.27026612 0.041069824 0.032193772
-0.15926535 -0.19913346 0.2628603 -0.21118115 -0.0143977795 0.00394369 0.23868133 -0.3257731
0.21215847 -0.36100328 0.3550931 0.17235205 -0.07348643 0.3523597 0.13013072 0.09196605
-0.12672673 -0.09797345 -0.22976959 0.25779477 -0.18252787 -0.047338977 0.2832677 -0.19855951
0.16524963 -0.16084023 -0.15984504 0.2990665 -0.25016278 -0.15043525 -0.28235453 0.1707443
0.18156612 0.3454806 -0.04342788 -0.32579765 -0.1271623 0.042423513 0.025637103 0.12037062
-0.3726817 -0.048522394 -0.25788128 0.1391441 0.18053022 -0.055083796 0.3040023 0.015630169
0.35867995 0.35406026 0.07034144 0.222771 0.3129186 -0.3324041 -0.24551588 -0.16288483
0.03607658 -0.1754108 0.25313705 0.15411909 -0.081617355 -0.25015536 0.2564243 -0.104103744
0.2499478 -0.2817425 0.19789135 0.052268013 0.3431709 0.21209936 -0.13111609 -0.36192402
0.3514181 0.062235523 -0.061218634 -0.32917953 -0.01661466 -0.27514344 0.31398782 0.13477789
-0.25300917 -0.111842915 0.09053931 0.07716256 -0.18364716 -0.35696945 -0.3377169 -0.15658945
0.3267006 -0.0071667535 -0.03930943 0.15240622 0.1055688 0.29717475 -0.3392156 0.051470537
0.16920266 0.2751011 0.09980821 -0.00043759227 -0.14457482 -0.37712687 -0.30517426 0.15360895
0.20797688 0.14788838 -0.20993248 -0.2047857 0.013284569 0.18364611 0.25430077 0.31149665
-0.33312204 0.18265803 0.37030688 -0.24267793 0.28064805 -0.29370332 -0.10588565 -0.15269843
-0.11995533 0.08362394 -0.05860748 -0.1783913 -0.10322281 0.13548382 0.22594404 -0.1297708
0.15430355 0.12519793 -0.03957977 0.1653261 -0.07040046 0.017700175 0.19310018 -0.1861011
0.27262932 0.23350534 -0.06561812 0.17833522 -0.115182206 0.3659741 -0.069226384 -0.32075638
-0.022289962 0.3620678 0.0545011 -0.32499334 -0.16687867 0.02712095 0.31053984 -0.032232326
0.15272465 0.00864851 -0.17411795 0.11940356 0.18900973 -0.2764076 0.2525392 -0.3606833
-0.34170577 -0.2899304 0.19615613 -0.28402802 0.28858453 0.19695476 -0.13361266 0.29772192
0.3332236 -0.3258052 0.31946126 0.19155207 0.050748516 -0.18136074 0.13486032 -0.020820681
0.14584725 -0.27411523 -0.121488035 0.12323838 -0.23943116 0.22111303 -0.36883804 -0.25352842
0.14561427 0.27311105 -0.17925537 0.044855777 -0.18203573 0.3873726 -0.2572093 0.107806176
-0.3247403 0.3619246 -0.10336739 0.16897509 0.14756356 -0.33740702 0.12341409 -0.06807276
00000000: ecdb 6b3e f59b 72be b007 883e 9c70 46be
00000010: 3657 b53e 4e54 2ebc b2fc 93be bcbb e53d
00000020: e912 313e 2d61 063e e6ae 96be 3297 f73d
00000030: 4b8f 0d3c 67e0 7e3e 0c7b 683e 07ca 4abe
00000040: 9691 ffbd f07e 85be de49 98be 32c1 dcbd
00000050: 18de 98be ea2c 893e 9271 893e 04f3 933e
00000060: 5d44 29bd d121 1ebe 7709 b83d e82c eb3d
00000070: f6bd b8be ea2a 453d 7287 80be 58f4 7dbd
00000080: 0e37 07ba 69c8 acbe 48ed 1ebe 7ef0 883d
00000090: 8649 4a3e 683b 273c e368 c4be c4d6 813d
000000a0: 02f1 853e 7022 b43e b3cd 8c3e 91d5 283d
000000b0: 4a27 293d 95ae b2be 4f02 c4be a84d 66be
000000c0: 2493 1cbd e2ce cbbd 282c 2d3e 89fd 5f3e
000000d0: 3a05 8fbe 5260 8abe d538 283d 9edd 033d
000000e0: 7516 23be a4e9 4bbe a095 863e df3f 58be
000000f0: aae4 6bbc 123a 813b e168 743e bbcb a6be
00000100: 1240 593e 6cd5 b8be c3ce b53e 0e7d 303e
00000110: 0e80 96bd 7e68 b43e fd40 053e b258 bc3d
00000120: a7c4 01be 4ea6 c8bd b848 6bbe adfd 833e
00000130: 96e8 3abe 84e6 41bd 7708 913e 2f53 4bbe
00000140: 3337 293e 4db3 24be 6bae 23be 3f1f 993e
00000150: 5615 80be b30b 1abe c690 90be 98d7 2e3e
00000160: 78ec 393e d5e2 b03e 6fe1 31bd f3ce a6be
00000170: d536 02be 47c4 2d3d e704 d23c df84 f63d
00000180: 23d0 bebe 6bbf 46bd 0409 84be ca7b 0e3e
00000190: eadc 383e 8c9f 61bd 31a6 9b3e d70a 803c
000001a0: e6a4 b73e 6347 b53e 2c0f 903d 151e 643e
000001b0: de36 a03e df30 aabe 8468 7bbe 48cb 26be
000001c0: 09c5 133d e49e 33be 2e9b 813e 65d1 1d3e
000001d0: 0027 a7bd 5d14 80be 0c4a 833e 5834 d5bd
000001e0: 51f2 7f3e 8e40 90be 08a4 4a3e fc16 563d
000001f0: 19b4 af3e 9330 593e 4c43 06be 1b4e b9be
00000200: 13ed b33e adea 7e3d 64c0 7abd 388a a8be
00000210: 781b 88bc 9adf 8cbe 03c3 a03e 3703 0a3e
00000220: 6b8a 81be e60d e5bd ac6c b93d 6707 9e3d
00000230: 000e 3cbe b3c4 b6be 3be9 acbe fc58 20be
00000240: 4d45 a73e 16d7 eabb ed02 21bd 6010 1c3e
00000250: 7434 d83d 4a27 983e abad adbe c5d2 523d
00000260: 7643 2d3e 0dda 8c3e 3f68 cc3d a46c e5b9
00000270: 6c0b 14be c616 c1be cd3f 9cbe aa4b 1d3e
00000280: e4f7 543e 0d70 173e 8af8 56be 58b3 51be
00000290: 85a7 593c ba0d 3c3e b633 823e 7d7c 9f3e
000002a0: f98e aabe b50a 3b3e dd98 bd3e 9080 78be
000002b0: 1ab1 8f3e 4860 96be 93da d8bd fa5c 1cbe
000002c0: 24ab f5bd 0743 ab3d 660e 70bd 35ac 36be
000002d0: 7b66 d3bd 45bc 0a3e e05d 673e a3e2 04be
000002e0: c001 1e3e e333 003e 661e 22bd 3f4b 293e
000002f0: 1e2e 90bd f5ff 903c 0ebc 453e 4991 3ebe
00000300: 1296 8b3e 061c 6f3e cb62 86bd 829d 363e
00000310: a6e4 ebbd f560 bb3e 90c6 8dbd 2e3a a4be
00000320: 7099 b6bc f360 b93e 8c3c 5f3d 8765 a6be
00000330: 3ee2 2abe c12c de3c 14ff 9e3e 0b06 04bd
00000340: da63 1c3e 7bb2 0d3c fa4b 32be db89 f43d
00000350: c48b 413e 4c85 8dbe d14c 813e 7bab b8be
00000360: 0ff4 aebe c271 94be 27dd 483e 1f6c 91be
00000370: 5ac1 933e 82ae 493e c2d1 08be 026f 983e
00000380: 499c aa3e f0cf a6be 6d90 a33e 3a26 443e
00000390: addd 4f3d a1b6 39be d318 0a3e 2290 aabc
000003a0: fb58 153e d558 8cbe b8ce f8bd 6764 fc3d
000003b0: 712d 75be 746b 623e 57d8 bcbe 7ace 81be
000003c0: e81b 153e 36d5 8b3e b88e 37be b1ba 373d
000003d0: 9367 3abe b455 c63e f0b0 83be 7cc9 dc3d
000003e0: 5c44 a6be 2e4e b93e 48b2 d3bd ce07 2d3e
000003f0: e71a 173e 9dc0 acbe 87c0 fc3d bb69 8bbd
